deployable_models/5way-5shot_relation_network.pkl (torch, 665035 bytes, 11 tensors)

layers.0.weight f4 [256, 128]
0.052259628 0.1690113 -0.041631125 -0.048288435 -0.032239113 0.1347211 0.15529773 0.009922061
-0.081173204 0.054870714 0.12307556 0.09118911 -0.09002465 -0.07883615 0.15598829 -0.09194422
-0.14683382 0.024079256 0.018990576 -0.060922083 0.2126624 -0.14707233 -0.06820503 -0.11335272
-0.004807806 -0.07246558 -0.13239364 -0.05789559 0.116353475 0.018030625 0.11051792 -0.043158136
0.074564 0.098790735 -0.19284813 0.094012916 -0.26247823 0.10697747 0.17162383 -0.15411367
-0.08440321 0.12824568 0.028072804 -0.14367026 0.07159722 0.006674838 -0.10758067 -0.056909148
-0.011319864 0.34315753 0.024454089 -0.026012875 0.08971749 -0.031369317 0.043745443 -0.13681208
-0.049124908 0.06354025 0.06221307 0.061357923 -0.15782365 -0.040900547 0.119057275 0.0754963
-0.06122423 0.20048094 0.025117915 0.2224334 0.0033387574 0.15716603 -0.022487907 -0.0779792
-0.044119276 0.1583555 -0.15095092 -0.055833224 0.109744765 -0.13243756 0.11033112 0.03356824
0.08255109 -0.001271645 -0.29192996 -0.0027348776 0.07753523 -0.20386815 -0.0065320856 0.07634627
-0.1951919 0.15458436 0.0890847 0.039921574 0.08530644 0.123706564 -0.010600849 0.13236932
-0.08689605 0.03322868 0.19088869 0.104206495 -0.057746027 -0.08335635 -0.11103424 0.015706709
0.09685122 0.012401808 0.11935974 0.017292524 -0.018754516 -0.079349644 0.025519134 -0.041095912
-0.13147578 -0.08578767 0.068082735 -0.09581841 0.072156124 0.14583868 -0.032162488 0.16412704
0.121532895 0.16083685 -0.10050488 -0.29253605 0.029280374 0.04901664 -0.011859901 0.1475772
-0.038996678 -0.104737476 -0.11468713 0.065169916 0.11479518 -0.055216283 0.008587029 -0.080995604
-0.06265108 -0.11772139 -0.34564638 0.029395046 -0.011853943 0.053741727 -0.0038791585 0.08625553
-0.29524863 0.12913339 -0.013649197 0.050808474 0.15842879 0.31130913 0.13671112 0.085008025
-0.01798378 0.17263256 0.17070433 0.032228652 0.04863584 -0.0006206381 -0.017844409 0.14890102
-0.09069478 0.1948926 0.020378392 -0.13918279 -0.22082317 -0.038977623 -0.013448412 -0.02840873
0.012674224 0.0004919513 0.19649325 -0.013323669 -0.09273847 -0.124566324 0.012585634 0.2499573
-0.105927356 -0.03162489 0.18326052 -0.054523375 -0.1610768 0.12338441 -0.0005326562 0.0554799
0.04286854 -0.10663385 -0.17775309 -0.012511954 -0.032588232 0.2178031 -0.019301482 -0.09720169
-0.12705258 -0.05924263 0.16276585 -0.13243665 0.16576324 0.11848157 0.11473994 -0.072010435
-0.117730774 -0.014310126 -0.15721545 0.026034629 0.0444669 0.2622829 -0.16145763 -0.0415732
0.10453711 -0.09151234 -0.014997855 -0.08317136 -0.0978145 0.068939425 -0.041949365 0.04188401
-0.005050621 -0.037181664 -0.08771854 -0.2070595 0.07477005 0.061438307 -0.059866305 0.004936335
0.021249175 -0.011173375 0.15237086 -0.032375924 -0.07646551 -0.007266762 0.0075710486 -0.07136583
-0.010074521 0.19715263 0.06575834 0.009022522 0.20814323 0.048579156 0.19925314 0.02743372
-0.077755444 0.08958014 0.07408036 0.06427237 0.14129214 0.043917254 -0.16071722 0.08677178
0.04179758 0.0657621 -0.1756875 0.04531751 -0.047754746 0.19254473 -0.055503134 0.19144362
00000000: 310e 563d 4c11 2d3e 6685 2abd 18ca 45bd
00000010: 290d 04bd 54f4 093e 5e06 1f3e 2490 223c
00000020: 233e a6bd 1dc0 603d 0a0f fc3d 5bc1 ba3d
00000030: d85e b8bd d974 a1bd 65bb 1f3e 404d bcbd
00000040: 9b5b 16be dc41 c53c 2092 9b3c 6f89 79bd
00000050: 2cc4 593e 219a 16be 14af 8bbd 7925 e8bd
00000060: cd8a 9dbb d668 94bd 3392 07be ed23 6dbd
00000070: bb4a ee3d f6b4 933c 3857 e23d 96c6 30bd
00000080: 03b5 983d cc52 ca3d fb79 45be d889 c03d
00000090: 8c63 86be 0117 db3d 28be 2f3e f9cf 1dbe
000000a0: 97db acbd d652 033e f0f8 e53c 4c1e 13be
000000b0: 90a1 923d 99b8 da3b 4153 dcbd 9119 69bd
000000c0: f376 39bc 58b2 af3e f153 c83c f418 d5bc
000000d0: cebd b73d 1d7d 00bd 6c2e 333d 7718 0cbe
000000e0: 3337 49bd 6421 823d 22d3 7e3d 7252 7b3d
000000f0: 869c 21be 5587 27bd 4dd4 f33d ce9d 9a3d
00000100: 42c6 7abd e04a 4d3e 16c4 cd3c 95c5 633e
00000110: 0ecf 5a3b 22f0 203e 8f38 b8bc 8fb3 9fbd
00000120: 6ab6 34bd f227 223e e192 1abe 61b1 64bd
00000130: ddc1 e03d b69d 07be 48f5 e13d da7e 093d
00000140: 8c10 a93d 53ad a6ba d877 95be a23b 33bb
00000150: caca 9e3d d0c2 50be 1b0b d6bb 6f5b 9c3d
00000160: 63e0 47be 5d4b 1e3e 0a72 b63d ce84 233d
00000170: 25b5 ae3d de59 fd3d 2faf 2dbc d38b 073e
00000180: 8ef6 b1bd cc1a 083d 5378 433e 376a d53d
00000190: 1987 6cbd bcb6 aabd eb65 e3bd 5bab 803c
000001a0: ef59 c63d f430 4b3c e172 f43d 0da9 8d3c
000001b0: 12a3 99bc 1182 a2bd 810d d13c 3054 28bd
000001c0: 96a1 06be 72b1 afbd f66e 8b3d 713c c4bd
000001d0: 97c6 933d bc56 153e d0bc 03bd eb10 283e
000001e0: 3de6 f83d 6ab2 243e 81d5 cdbd 49c7 95be
000001f0: 65dd ef3c acc5 483d 0850 42bc 7a1e 173e
00000200: fbba 1fbd 9a80 d6bd 16e1 eabd ce77 853d
00000210: bc19 eb3d 782a 62bd 9cb0 0c3c 06e1 a5bd
00000220: 364f 80bd ea17 f1bd 90f8 b0be e1cd f03c
00000230: 0a37 42bc 4920 5c3d 7b39 7ebb bda6 b03d
00000240: d42a 97be 8b3b 043e e2a0 5fbc 8c1c 503d
00000250: 283b 223e e963 9f3e 00fe 0b3e b018 ae3d
00000260: b852 93bc 97c6 303e 1ecd 2e3e 3102 043d
00000270: 6036 473d 51b2 22ba 702e 92bc 8279 183e
00000280: 2fbe b9bd ed91 473e 96f0 a63c ef85 0ebe
00000290: 781f 62be 00a7 1fbd ba56 5cbc 6db9 e8bc
000002a0: 8ca7 4f3c 4bf6 003a 8735 493e 854b 5abc
000002b0: abed bdbd a11c ffbd fa33 4e3c cef4 7f3e
000002c0: 71f0 d8bd 1a89 01bd a5a8 3b3e e753 5fbd
000002d0: 51f1 24be f7b0 fc3d f4a1 0bba e43e 633d
000002e0: ec96 2f3d d962 dabd e804 36be f0fe 4cbc
000002f0: 3d7b 05bd c707 5f3e 241e 9ebc ae11 c7bd
00000300: 121a 02be 66a8 72bd 17ac 263e 799d 07be
00000310: d7bd 293e 77a6 f23d c6fc ea3d 357a 93bd
00000320: d51c f1bd 0575 6abc 16fd 20be 9346 d53c
00000330: ed22 363d f249 863e 2655 25be a948 2abd
00000340: 8d17 d63d d26a bbbd 90b9 75bc bf55 aabd
00000350: f852 c8bd 1d30 8d3d 19d3 2bbd 918e 2b3d
00000360: ae7f a5bb cd4b 18bd c7a5 b3bd 6807 54be
00000370: 0a21 993d bca6 7b3d 5f36 75bd fbc0 a13b
00000380: c012 ae3c 8810 37bc 1b07 1c3e 9e9c 04bd
00000390: f399 9cbd 051e eebb 8f16 f83b 4028 92bd
000003a0: 9b0f 25bc 61e2 493e 4fac 863d 33d3 133c
000003b0: 8023 553e f0fa 463d 0409 4c3e aebc e03c
000003c0: 3f3e 9fbd cb75 b73d 72b7 973d 3ba1 833d
000003d0: e3ae 103e 94e2 333d 0e93 24be 67b5 b13d
000003e0: f033 2b3d 48ae 863d 6de7 33be da9e 393d
000003f0: 7b9a 43bd 722a 453e 4157 63bd cc09 443e

layers.0.bias f4 [256]
0.010545819 -0.024513585 -0.081255 -0.13065873 -0.13912883 -0.027312651 -0.035919107 -0.11215415
-0.0071731005 0.012914579 -0.08799034 0.09857981 -0.16990027 -0.09110017 -0.029493228 0.020478034
-0.14308368 -0.11241129 0.021915155 -0.19258349 -0.02923152 -0.16159527 -0.10036419 0.004323264
-0.056102194 -0.17387064 -0.22271325 -0.016531447 -0.1566944 -0.14772075 -0.07849971 -0.07887611
0.031392895 -0.12858202 0.10319112 -0.021118702 -0.15038916 -0.14799164 -0.03224879 0.00422624
-0.22155263 0.024398766 -0.22108068 -0.17826259 -0.13705778 -0.065989465 -0.05283093 -0.0729327
-0.18839173 0.116759405 -0.17244093 -0.084111735 0.01006389 0.0031644073 -0.07748299 -0.22937281
-0.07319416 -0.03353824 -0.14470077 -0.12056932 -0.060197823 -0.051560078 -0.27676234 -0.1253299
-0.19592574 -0.11433289 -0.18656412 -0.05524481 0.007772591 -0.06463541 -0.10938551 0.113725536
0.006534016 -0.13245079 -0.08275558 -0.07018091 -0.0073096612 -0.2680087 -0.15049675 -0.13558207
-0.23869884 0.0064917984 -0.22507687 -0.17595196 0.022594217 -0.1318565 -0.17934835 -0.2493905
-0.12628809 -0.041182827 -0.024664568 -0.1109252 -0.14538844 -0.24169981 -0.08899617 -0.20928662
-0.19911902 -0.1542593 0.00941322 -0.08291827 -0.18516292 -0.050118063 -0.06554117 -0.20964423
-0.11131005 0.03742738 -0.23334655 -0.002632736 -0.033017725 -0.15008707 -0.0032846862 -0.10356882
-0.069868535 -0.075141326 -0.16693765 -0.26692963 -0.08182089 -0.14137328 -0.13830574 -0.18902667
-0.06107601 -0.13566701 -0.16132918 -0.1546567 -0.049193952 -0.08591414 -0.13164602 -0.008174117
-0.011863552 -0.1799287 -0.06652773 -0.063585885 -0.14781053 0.06720641 -0.03735697 -0.07405706
-0.11764922 -0.07347666 -0.2205401 -0.18393748 0.009469288 -0.015778523 -0.14988025 -0.06954358
-0.020959282 0.1333899 -0.18598992 -0.1808102 -0.1952598 -0.056196798 -0.1694854 -0.14026703
-0.057150956 0.062379923 -0.068021104 -0.013366255 0.10623464 -0.060342103 -0.19909191 0.020105772
-0.050207373 -0.0329503 -0.117290445 -0.15004867 -0.1081507 -0.0148971 -0.04269243 -0.030363634
-0.043772798 -0.22340311 -0.096743196 -0.21144332 -0.20496231 -0.1329006 -0.00087567896 -0.059132457
-0.018048942 -0.1954814 -0.023035994 -0.034949157 -0.025946673 -0.101256676 -0.18925901 0.006063799
-0.080957025 0.015654868 -0.21146435 -0.25569946 0.00093643815 -0.19696607 -0.097932085 -0.10294437
0.057759393 -0.025417477 -0.13863961 -0.18738443 -0.2509428 -0.1168114 0.004136275 -0.055800814
-0.15708296 0.05700331 -0.1224854 -0.2788751 -0.08910159 -0.13909526 0.022298116 -0.17519641
-0.004788865 0.016579626 -0.04471843 0.031841617 -0.10428271 -0.10565683 -0.09194625 -0.16324577
-0.075077154 0.016220313 -0.043788385 -0.2085451 0.026936717 -0.079779275 0.018866109 -0.033007197
-0.113722675 -0.097081415 -0.20533116 -0.09997674 0.010149238 -0.12493029 -0.036726408 -0.010011741
-0.14748245 -0.06541034 -0.06990647 0.017027851 -0.04444478 -0.13716012 -0.12520838 -0.13800278
0.11196432 -0.27310336 -0.023973651 -0.022887187 -0.16882029 0.07614736 -0.15999264 -0.10106027
-0.15421203 -0.13560513 -0.13734037 -0.03615842 -0.050450824 -0.1354385 -0.24012162 0.004822625
00000000: 5fc8 2c3c b7d0 c8bc 0569 a6bd 67cb 05be
00000010: ca77 0ebe c8be dfbc ea1f 13bd 13b1 e5bd
00000020: 540c ebbb ac97 533c 4834 b4bd 36e4 c93d
00000030: 56fa 2dbe ba92 babd c89b f1bc 8dc1 a73c
00000040: 8784 12be e437 e6bd 6987 b33c 9b34 45be
00000050: f176 efbc 3b79 25be be8b cdbd 2baa 8d3b
00000060: 6acb 65bd 250b 32be f10e 64be f56c 87bc
00000070: 7f74 20be 1c44 17be 75c4 a0bd cc89 a1bd
00000080: d695 003d 01ab 03be de55 d33d 2101 adbc
00000090: 9eff 19be 1f8b 17be 4f17 04bd 457c 8a3b
000000a0: b1de 62be ecdf c73c f962 62be 788a 36be
000000b0: e058 0cbe 7c25 87bd 3f65 58bd bd5d 95bd
000000c0: c3e9 40be 8e1f ef3d 5b94 30be c642 acbd
000000d0: 04e3 243c f261 4f3b 67af 9ebd b5e0 6abe
000000e0: d2e6 95bd 655f 09bd 702c 14be 0ced f6bd
000000f0: fe91 76bd a930 53bd cbb3 8dbe 7b56 00be
00000100: c2a0 48be 5d27 eabd aa0a 3fbe 6248 62bd
00000110: 38b1 fe3b 925f 84bd 8305 e0bd efe8 e83d
00000120: 4d1b d63b 2ea1 07be c27b a9bd 02bb 8fbd
00000130: e285 efbb 7038 89be d21b 1abe 07d6 0abe
00000140: 786d 74be 27b9 d43b 8d7a 66be c02c 34be
00000150: 8217 b93c 6405 07be 18a7 37be 3960 7fbe
00000160: aa51 01be 53af 28bd 590d cabc c02c e3bd
00000170: b5e0 14be 2880 77be a043 b6bd 3b4f 56be
00000180: dbe5 4bbe 26f6 1dbe e839 1a3c 0ed1 a9bd
00000190: 599b 3dbe 9948 4dbd 733a 86bd faac 56be
000001a0: 86f6 e3bd 744d 193d 66f2 6ebe fb89 2cbb
000001b0: 983d 07bd 6db0 19be e443 57bb e41b d4bd
000001c0: 3c17 8fbd b2e3 99bd b4f1 2abe 00ab 88be
000001d0: b691 a7bd 28c4 10be 05a0 0dbe 3590 41be
000001e0: d72a 7abd 4bec 0abe 7a33 25be 535e 1ebe
000001f0: 997f 49bd c1f3 afbd 37ce 06be bbec 05bc
00000200: 585f 42bc 3b3f 38be b13f 88bd 5139 82bd
00000210: a55b 17be 84a3 893d 9f03 19bd 3aab 97bd
00000220: 13f2 f0bd ee7a 96bd 44d5 61be 1b5a 3cbe
00000230: 1325 1b3c f641 81bc 357a 19be dd6c 8ebd
00000240: cdb2 abbc 5d97 083e 2474 3ebe 4f26 39be
00000250: 2ff2 47be 9d2e 66bd 958d 2dbe 29a2 0fbe
00000260: 1f17 6abd 1782 7f3d a64e 8bbd 23fe 5abc
00000270: 8c91 d93d 4829 77bd c0de 4bbe dcb4 a43c
00000280: 3fa6 4dbd e5f6 06bd f935 f0bd 5ca6 19be
00000290: 1d7e ddbd f712 74bc 42de 2ebd 28bd f8bc
000002a0: 1b4b 33bd c9c3 64be 4c21 c6bd 9984 58be
000002b0: a4e1 51be 1817 08be d28d 65ba e034 72bd
000002c0: 60db 93bc 472c 48be fbb5 bcbc d926 0fbd
000002d0: 1e8e d4bc a95f cfbd 1dcd 41be d5b2 c63b
000002e0: cccc a5bd a33e 803c 1c8a 58be 0aeb 82be
000002f0: 4d7b 753a 79b1 49be 9e90 c8bd 7fd4 d2bd
00000300: 1d95 6c3d 5038 d0bc 8bf7 0dbe b4e1 3fbe
00000310: 937b 80be d13a efbd 9789 873b 658f 64bd
00000320: 5bda 20be 4e7c 693d a0d9 fabd b8c8 8ebe
00000330: e57a b6bd fd6e 0ebe 8aaa b63c b066 33be
00000340: e9eb 9cbb ffd1 873c ac2a 37bd 5b6c 023d
00000350: 2c92 d5bd 9c62 d8bd 514e bcbd e629 27be
00000360: 0dc2 99bd 76e0 843c 735b 33bd d98c 55be
00000370: 64aa dc3c 5163 a3bd 198d 9a3c 8e32 07bd
00000380: 6fe7 e8bd 9fd2 c6bd 5542 52be 9bc0 ccbd
00000390: fd48 263c 74db ffbd 6e6e 16bd 4908 24bc
000003a0: a405 17be dbf5 85bd 202b 8fbd fe7d 8b3c
000003b0: bb0b 36bd b473 0cbe a036 00be 9a50 0dbe
000003c0: 8d4d e53d 34d4 8bbe 6464 c4bc e97d bbbc
000003d0: 3adf 2cbe 26f3 9b3d 1cd5 23be b0f8 cebd
000003e0: c2e9 1dbe 12dc 0abe f4a2 0cbe da1a 14bd
000003f0: 86a5 4ebd 64b0 0abe 71e2 75be 1c07 9e3b

layers.2.weight f4 [128, 256]
-0.15168035 0.12257177 0.209106 0.07169196 -0.046426885 -0.11932428 0.1219462 -0.008357786
0.10626643 -0.060939677 0.058434367 -0.08961585 0.19781284 0.104928635 0.12552445 0.10241016
0.19329427 0.061369043 0.060906928 0.2423754 0.03651162 0.12954333 0.09466006 -0.13883945
-0.03279675 -0.20552458 0.13112058 -0.08817751 -0.03748507 0.10442089 -0.16402335 0.09814086
0.10354804 -0.21651727 -0.083565295 0.067539446 0.03688661 0.20791785 0.04139413 0.022644656
0.08412591 0.10261134 0.1693203 0.14474306 -0.15994817 0.17017594 -0.13037607 0.20079942
0.044263765 -0.15348338 -0.23092839 0.15167502 0.07756407 -0.14685808 -0.027324595 0.13044216
-0.11122195 0.09569946 0.30665448 0.060094886 0.116483666 -0.04272555 -0.13597785 -0.019561252
0.00035904013 0.09872439 0.123040125 0.1686012 0.060054924 0.053901788 0.0003046926 -0.09952566
-0.0413357 -0.10640004 0.15258312 -0.07558463 0.18926194 -0.07638751 0.15874761 0.003141037
0.17204182 -0.034810193 0.057109907 0.10383713 -0.16959517 0.13111217 -0.06681307 0.08246815
0.07418766 0.08194392 0.03808687 0.16887932 -0.019381989 0.008370657 0.095250666 0.09791712
0.082777806 0.043826576 0.10241036 0.15937328 0.06697543 0.06884484 -0.1494053 -0.0041010054
0.06093492 0.09194525 0.053919148 0.061011754 0.23479965 -0.113095425 0.18608832 0.10801015
0.055179235 -0.028122522 -0.01368606 -0.030602787 0.18236643 -0.14047082 -0.21378979 -0.107081234
0.089049034 -0.08803737 0.01804542 0.01421959 0.083972625 0.09130345 0.046124745 -0.013119016
0.085388675 0.098140635 0.062253382 -0.10988623 -0.050105937 -0.031052453 0.12552086 0.22577436
0.2599236 -0.022856945 -0.012306606 0.09736108 0.098144 -0.08688143 -0.053009644 0.020753274
0.06871249 -0.11812046 0.041465096 -0.08104305 -0.050503664 0.12732308 -0.055957176 0.071479335
0.15208615 -0.14794645 0.10052902 0.020417001 -0.17199346 -0.018801143 0.13160925 0.08831712
0.19043556 -0.0027561802 0.11147391 0.049088202 0.054708198 0.07432364 0.0409503 0.089216426
-0.02286636 -0.074263245 0.109131016 0.09736562 -0.012007449 0.081382334 0.022726696 0.010855298
0.083980665 -0.025315054 -0.17036127 0.13572294 -0.015771758 0.0068814307 -0.019773165 0.12615177
0.029028878 0.17936137 0.09457222 0.17760321 0.070191346 -0.07569498 0.123544194 0.032702163
-0.08122726 0.11193174 0.10760652 0.20578818 0.04743659 0.14408644 0.20125751 -0.046683703
-0.06606706 0.105919 0.10732935 -0.0290759 0.013944233 -0.101926774 0.08093495 -0.10630238
0.19408794 -0.0887857 0.014483308 0.09799885 0.094518855 -0.00541014 -0.021635672 0.08005597
-0.066053 -0.22923099 0.099840246 -0.02128401 0.0676313 -0.11389686 -0.1367639 0.099733904
0.14523928 0.034758896 -0.020665418 -0.09585468 -0.026612638 0.15160966 -0.022767937 0.081608355
0.03934677 0.19723953 0.13571908 -0.25781578 -0.22633578 0.13604854 -0.15111184 -0.21885566
-0.18975626 0.101729594 0.03147919 -0.050256155 0.13444805 0.17476292 -0.111299574 -0.015689122
0.11154523 -0.08004842 0.021531137 0.1224443 0.12103837 0.116801925 -0.1119108 0.022108102
00000000: 1852 1bbe e806 fb3d e21f 563e 3cd3 923d
00000010: 1e2a 3ebd 4a60 f4bd eebe f93d 18ef 08bc
00000020: 37a2 d93d e29b 79bd e058 6f3d 8488 b7bd
00000030: 738f 4a3e d3e4 d63d 7b89 003e 6bbc d13d
00000040: efee 453e 1b5e 7b3d 8b79 793d 4231 783e
00000050: 358d 153d 02a7 043e 22dd c13d ee2b 0ebe
00000060: e355 06bd 0975 52be 7944 063e 6996 b4bd
00000070: f289 19bd 9fda d53d bdf5 27be 13fe c83d
00000080: ff10 d43d b4b6 5dbe 4824 abbd 1f52 8a3d
00000090: 6a16 173d 6be8 543e e48c 293d 4981 b93c
000000a0: 354a ac3d e525 d23d 4d62 2d3e 8637 143e
000000b0: 74c9 23be 9a42 2e3e 4e81 05be 5d9e 4d3e
000000c0: ec4d 353d bf2a 1dbe 7e78 6cbe b250 1b3e
000000d0: e9d9 9e3d f761 16be d4d7 dfbc a192 053e
000000e0: 55c8 e3bd 14fe c33d d101 9d3e 0e26 763d
000000f0: fd8e ee3d fc00 2fbd c73d 0bbe eb3e a0bc
00000100: 8d3d bc39 0330 ca3d 76fc fb3d cba5 2c3e
00000110: 27fc 753d 1fc8 5c3d 26bf 9f39 1cd4 cbbd
00000120: 9f4f 29bd 44e8 d9bd c03e 1c3e 1dcc 9abd
00000130: e2cd 413e 0e71 9cbd bc8e 223e dbd9 4d3b
00000140: bb2b 303e 2295 0ebd 14ec 693d 90a8 d43d
00000150: 5baa 2dbe 4542 063e 4ad5 88bd 10e5 a83d
00000160: b3ef 973d 37d2 a73d fa00 1c3d b3ee 2c3e
00000170: fac6 9ebc 1525 093c c812 c33d c588 c83d
00000180: 6987 a93d 7f83 333d 86bc d13d c032 233e
00000190: 6a2a 893d 86fe 8c3d b4fd 18be ba61 86bb
000001a0: e596 793d cb4d bc3d 53da 5c3d 76e7 793d
000001b0: 526f 703e 939e e7bd f08d 3e3e 6d34 dd3d
000001c0: 9f03 623d 3461 e6bc 7f3b 60bc b2b2 fabc
000001d0: 44be 3a3e 95d7 0fbe b6eb 5abe 684d dbbd
000001e0: 575f b63d f04c b4bd fdd3 933c 49f9 683c
000001f0: d7f9 ab3d 4efd ba3d 4ded 3c3d 24f1 56bc
00000200: 42e0 ae3d f5fd c83d 67fd 7e3d 080c e1bd
00000210: e23b 4dbd b761 febc 8a88 003e 6531 673e
00000220: b514 853e 7d3e bbbc a6a1 49bc 3f65 c73d
00000230: b9ff c83d e4ee b1bd a420 59bd c502 aa3c
00000240: 22b9 8c3d 24e9 f1bd 4ed7 293d e6f9 a5bd
00000250: eedc 4ebd fb60 023e 5a33 65bd c263 923d
00000260: 79bc 1b3e 467f 17be 29e2 cd3d 8e41 a73c
00000270: 0e1f 30be db04 9abc 93c4 063e 9bdf b43d
00000280: 8a01 433e 08a1 34bb 6f4c e43d b610 493d
00000290: b415 603d fe36 983d 80bb 273d 1ab7 b63d
000002a0: 3c52 bbbc 5417 98bd 1580 df3d a067 c73d
000002b0: e4ba 44bc c8ab a63d 562d ba3c 6bda 313c
000002c0: 0efe ab3d 8461 cfbc 2f73 2ebe f4fa 0a3e
000002d0: c633 81bc a07d e13b 55fb a1bc ee2d 013e
000002e0: f8cd ed3c 82aa 373e 15af c13d 9edd 353e
000002f0: 7bc0 8f3d f805 9bbd bd04 fd3d b4f2 053d
00000300: 7a5a a6bd 783c e53d cf60 dc3d 23ba 523e
00000310: df4c 423d 658b 133e 7316 4e3e 6937 3fbd
00000320: 2b4e 87bd 10ec d83d 7ecf db3d 9530 eebc
00000330: 5a76 643c fcbe d0bd 39c1 a53d 10b5 d9bd
00000340: fdbe 463e 47d5 b5bd 664b 6d3c 9fb3 c83d
00000350: 1a93 c13d 8b47 b1bb 4b3d b1bc 62f4 a33d
00000360: cc46 87bd 87bb 6abe 0b79 cc3d ce5b aebc
00000370: 4782 8a3d c242 e9bd d60b 0cbe 4a41 cc3d
00000380: 9bb9 143e 585f 0e3d 864a a9bc 754f c4bd
00000390: bf02 dabc 903f 1b3e d383 babc 4822 a73d
000003a0: 142a 213d 29f9 493e f1f9 0a3e 6e00 84be
000003b0: 91c4 67be 4f50 0b3e 10bd 1abe b31b 60be
000003c0: 774f 42be 9b57 d03d 53f0 003d 66d9 4dbd
000003d0: c0ac 093e 0df5 323e 08f1 e3bd 7986 80bc
000003e0: d371 e43d 6df0 a3bd 1162 b03c 14c4 fa3d
000003f0: f7e2 f73d d935 ef3d 7d31 e5bd 0d1c b53c

layers.2.bias f4 [128]
-0.073861316 -0.080023564 -0.059945676 0.11285248 0.17222007 -0.087156 -0.007637163 -0.060863614
-0.061029542 -0.10358398 -0.09823302 -0.104344405 0.02219431 -0.1900356 -0.10857898 0.028391983
-0.075091064 -0.01404037 -0.04087044 -0.068913236 -0.063528836 -0.0013771805 -0.01954602 -0.020979997
-0.06720021 -0.012076013 -0.07197811 0.012512418 0.28082848 -0.1560719 -0.037987 -0.04292029
-0.028627854 -0.08372747 -0.041259814 -0.064567335 0.17350762 -0.03239259 -0.12235223 -0.00882367
0.18478768 -0.082284816 -0.07775901 -0.07479227 -0.07053431 -0.0688347 -0.059254725 0.024901547
0.14761265 0.060350742 -0.044219185 -0.009846667 0.00913314 -0.09803499 -0.057216648 -0.030918274
-0.07639115 -0.024182994 -0.07074401 -0.10179044 -0.028753432 -0.03960817 0.013804296 -0.06910741
-0.039977904 -0.07858142 -0.16897517 -0.019118994 -0.0013654019 0.010351886 -0.10531076 -0.07768663
-0.057030857 -0.11317885 0.016939374 0.0054209842 0.11958087 -0.03840123 -0.062605746 -0.059790816
0.004578567 -0.08142218 0.06309771 -0.089745894 -0.07638161 -0.102896266 0.14782116 -0.064341694
-0.13379835 0.118933715 0.17230082 -0.08900731 0.09792799 -0.099027134 -0.07941913 -0.15795417
-0.051114276 0.09331145 -0.013960292 0.025833035 -0.10991633 -0.061142553 -0.12404904 -0.05913013
-0.0362365 -0.07611602 -0.10901096 -0.15662196 -0.03226389 0.12563248 0.073812254 -0.04101565
-0.08766773 -0.05067366 -0.088866085 -0.07626679 -0.07296087 -0.125809 -0.042886246 0.10513096
-0.017789492 -0.10066404 -0.015759049 -0.043427918 -0.09005149 -0.01759734 -0.007922006 -0.08971994
00000000: 9a44 97bd 65e3 a3bd 9989 75bd 331f e73d
00000010: 755a 303e d87e b2bd 2b41 fabb 204c 79bd
00000020: 1dfa 79bd d623 d4bd 652e c9bd 85b2 d5bd
00000030: d7d0 b53c b198 42be a85e debd 4e96 e83c
00000040: 58c9 99bd 9409 66bc c367 27bd 6222 8dbd
00000050: 681b 82bd 8282 b4ba fa1e a0bc 3ede abbc
00000060: 44a0 89bd 78da 45bc 4269 93bd e300 4d3c
00000070: c0c8 8f3e 50d1 1fbe 4298 1bbd 30cd 2fbd
00000080: f684 eabc 4f79 abbd 0d00 29bd e13b 84bd
00000090: fbab 313e 18ae 04bd ce93 fabd 2891 10bc
000000a0: fb38 3d3e f184 a8bd 1e40 9fbd b12c 99bd
000000b0: 4b74 90bd 35f9 8cbd 15b5 72bd 54fe cb3c
000000c0: c527 173e 5732 773d 2d1f 35bd ea53 21bc
000000d0: 2aa3 153c 92c6 c8bd 015c 6abd 5248 fdbc
000000e0: f772 9cbd 6a1b c6bc 3ce2 90bd 8277 d0bd
000000f0: 518c ebbc 2d3c 22bd 6a2b 623c 3088 8dbd
00000100: dfbf 23bd 4cef a0bd d407 2dbe 709f 9cbc
00000110: 49f7 b2ba f59a 293c 2bad d7bd 2b1a 9fbd
00000120: 3099 69bd 50ca e7bd 71c4 8a3c 83a2 b13b
00000130: d1e6 f43d 9c4a 1dbd 7137 80bd 37e7 74bd
00000140: ce07 963b acc0 a6bd 5f39 813d b2cc b7bd
00000150: f66d 9cbd 47bb d2bd 6e5e 173e 94c5 83bd
00000160: 6f02 09be 8593 f33d a06f 303e 7749 b6bd
00000170: 788e c83d bdce cabd 7fa6 a2bd bdbe 21be
00000180: 345d 51bd 131a bf3d b5b9 64bc cd9f d33c
00000190: d01b e1bd 9d70 7abd 6c0d febd 6f32 72bd
000001a0: b96c 14bd b7e2 9bbd 2341 dfbd 8261 20be
000001b0: 2427 04bd cda5 003e e12a 973d 0700 28bd
000001c0: 248b b3bd 2f8f 4fbd 6cff b5bd c331 9cbd
000001d0: 826c 95bd 13d4 00be 7da9 2fbd e74e d73d
000001e0: 45bb 91bc f328 cebd 1f19 81bc 79e1 31bd
000001f0: ea6c b8bd 4c28 90bc 4dcb 01bc 17bf b7bd

layers.4.weight f4 [128, 128]
0.003210044 -0.035795316 0.020006735 -0.05464601 -0.062959984 -0.10081437 0.005977224 0.038414184
-0.0397019 -0.003184928 0.021104349 0.004389179 -0.02656211 -0.03943445 -0.10300805 0.025142243
-0.06432512 -0.104445614 -0.051228978 0.036341816 0.071021914 0.06483414 0.09163076 -0.031555742
-0.011197235 -0.04275219 -0.073271915 -0.08829444 0.005408299 -0.015019956 0.06274831 -0.035921246
0.013670111 0.052519336 -0.15873341 -0.0878387 -0.016255243 -0.11392862 0.00022111711 0.030506544
0.028384866 0.08564944 0.08567764 -0.093010984 -0.028086748 -0.004542358 -0.01101528 0.003085261
-0.05731399 -0.0793799 0.071509756 -0.014548029 0.02430718 0.008137736 -0.013651492 -0.0024164473
-0.07835622 0.08124328 -0.075349204 -0.00406777 -0.111197636 0.001865403 0.06361591 -0.101945095
-0.09028803 -0.008703851 -0.103078455 -0.007217772 -0.010089179 -0.046645205 -0.06700553 -0.07843257
-0.047209214 -0.15176645 0.06767203 -0.07787661 -0.04516967 -0.044708285 -0.009727205 0.07103069
-0.063480385 -0.019869385 0.03191337 0.024650047 0.05142598 -0.050387476 -0.12362024 0.22683102
-0.087325335 0.08564502 -0.07272842 -0.05762405 0.035984125 -0.012146289 -0.049075082 0.06329173
0.07254214 -0.13435858 -0.055593286 -0.09433569 0.010020782 -0.07907025 0.0008049019 -0.1037591
-0.0024477122 -0.024583876 -0.06624709 -0.021814227 -0.04472583 0.0752002 -0.079440705 -0.09460147
-0.03114935 -0.003582613 0.031150118 -0.029734572 -0.06035048 -0.10040352 -0.13131018 -0.04470584
-0.010593498 -0.093770206 0.017212844 -0.16363685 -0.03079873 -0.08042674 -0.023810936 -0.04727604
0.057791673 0.04282282 0.045813598 0.0746298 0.054216843 -0.0020056483 -0.10339146 0.0017555478
0.0015783143 0.037129164 0.042605545 -0.071518615 0.0012890046 0.014314961 -0.013215144 0.04231604
0.05392299 0.086686656 -0.021098685 -0.027024478 -0.06551686 -0.033513676 0.016777901 -0.10706517
0.0024028902 0.028870268 0.0706897 0.061412387 -0.019287243 -0.026661662 0.025294092 0.041220505
-0.082994156 -0.023053596 -0.011501967 0.04555943 -0.08587622 0.008482106 -0.07196048 -0.056837007
-0.071593024 -0.050958812 0.060696375 -0.06972616 -0.034374923 0.027084153 -0.064848445 -0.09109128
-0.076438755 -0.0011858008 0.027256822 -0.057685878 -0.03907139 0.070517406 -0.076572806 0.06019865
-0.0108318 -0.10364233 0.050487433 0.056444954 -0.010207171 -0.037210207 0.077268936 0.030600945
-0.06925407 -0.05720072 0.017141113 -0.090045884 0.0452248 0.046053287 0.023332527 -0.009036189
0.032894503 -0.059285197 -0.032604404 0.058269292 -0.14503235 0.01890459 -0.06924759 -0.075975426
0.07292254 -0.075639814 0.021440566 0.07157949 0.061094414 -0.0065025785 0.03698239 -0.0175478
0.056333758 0.06877934 -0.03472145 0.01859348 -0.009646483 -0.08168492 0.007744216 0.064729065
0.0070760134 0.07198857 -0.043565676 0.0074543157 0.080800034 0.045831382 0.020235738 -0.08017006
0.0026576922 0.069807544 -0.050442044 0.05883521 -0.0913906 -0.07559287 -0.061571907 -0.025409283
0.012511442 -0.10967669 0.07566058 -0.053441375 0.09735652 0.08238988 -0.030235285 0.035673648
-0.08517392 -0.028776262 -0.07728951 0.0075770933 0.093221955 -0.051309533 -0.042850167 -0.0007514749
00000000: 9a5f 523b 1c9e 12bd 2ae5 a33c 7fd4 5fbd
00000010: 2af1 80bd c477 cebd 97dc c33b 3158 1d3d
00000020: 769e 22bd 3aba 50bb 07e3 ac3c 1ad3 8f3b
00000030: c898 d9bc 0586 21bd e2f5 d2bd 1bf7 cd3c
00000040: e3bc 83bd 95e7 d5bd 7ad5 51bd 28db 143d
00000050: f073 913d c3c7 843d e8a8 bb3d 9840 01bd
00000060: 9c74 37bc ec1c 2fbd 960f 96bd b7d3 b4bd
00000070: 1a38 b13b 4316 76bc 3082 803d 2822 13bd
00000080: 9af8 5f3c 841e 573d 038b 22be c7e4 b3bd
00000090: b729 85bc 6953 e9bd acdb 6739 dce8 f93c
000000a0: 6187 e83c f968 af3d c277 af3d 8b7c bebd
000000b0: 2e16 e6bc 10d8 94bb 6f79 34bc 1732 4a3b
000000c0: 13c2 6abd ee91 a2bd b573 923d db5a 6ebc
000000d0: da1f c73c 2354 053c 82aa 5fbc 425d 1ebb
000000e0: 3a79 a0bd e062 a63d af50 9abd ee4a 85bb
000000f0: 96bb e3bd 8a80 f43a 0f49 823d 97c8 d0bd
00000100: eee8 b8bd 999a 0ebc cc1a d3bd 0f83 ecbb
00000110: 154d 25bc 0b0f 3fbd 323a 89bd 41a1 a0bd
00000120: 735e 41bd aa68 1bbe a297 8a3d c67d 9fbd
00000130: d503 39bd 0920 37bd db5e 1fbc 8a78 913d
00000140: 0102 82bd 1fc5 a2bc 98b7 023d e5ee c93c
00000150: 0ca4 523d 1963 4ebd 9c2c fdbd 6446 683e
00000160: a0d7 b2bd a866 af3d a3f2 94bd 3207 6cbd
00000170: 1764 133d 3b01 47bc f402 49bd 189f 813d
00000180: f990 943d 4c95 09be c9b5 63bd 1233 c1bd
00000190: 352e 243c 95ef a1bd 0d00 533a a77f d4bd
000001a0: cc69 20bb 2064 c9bc 8eac 87bd c0b3 b2bc
000001b0: 6f32 37bd 9002 9a3d cfb1 a2bd 6abe c1bd
000001c0: ec2c ffbc 46ca 6abb 882e ff3c eb95 f3bc
000001d0: 1132 77bd 5ca0 cdbd 2d76 06be 791d 37bd
000001e0: 5a90 2dbc 980a c0bd f301 8d3c 6b90 27be
000001f0: 9e4d fcbc c6b6 a4bd 270f c3bc 85a4 41bd
00000200: f6b6 6c3d fb66 2f3d 0aa7 3b3d 82d7 983d
00000210: 7b12 5e3d 3271 03bb e7be d3bd 691a e63a
00000220: 71df ce3a c014 183d 2783 2e3d 5a78 92bd
00000230: d1f3 a83a 4c89 6a3c 5584 58bc 9553 2d3d
00000240: 5ade 5c3d c688 b13d 26d7 acbc 7062 ddbc
00000250: b42d 86bd a345 09bd cf71 893c fc44 dbbd
00000260: cf79 1d3b 5781 ec3c c3c5 903d 8e8b 7b3d
00000270: 4800 9ebc 8f69 dabc 8e35 cf3c d5d6 283d
00000280: d7f8 a9bd e5da bcbc bf72 3cbc 869c 3a3d
00000290: dfdf afbd 88f8 0a3c 0460 93bd eccd 68bd
000002a0: 5d9f 92bd 30ba 50bd c39c 783d 97cc 8ebd
000002b0: b8cc 0cbd 96df dd3c 43cf 84bd 118e babd
000002c0: ec8b 9cbd df6c 9bba b349 df3c 0748 6cbd
000002d0: 5209 20bd 6e6b 903d 34d2 9cbd dc92 763d
000002e0: dd77 31bc 6e42 d4bd e9cb 4e3d d332 673d
000002f0: fa3b 27bc bb69 18bd 2d3f 9e3d d5ae fa3c
00000300: 14d5 8dbd 4d4b 6abd 856b 8c3c fa69 b8bd
00000310: a43d 393d 5fa2 3c3d db23 bf3c 860c 14bc
00000320: 63bc 063d 09d5 72bd 328c 05bd c8ab 6e3d
00000330: 5c83 14be ccdd 9a3c aed1 8dbd 0199 9bbd
00000340: 6a58 953d 0ce9 9abd 20a4 af3c 4598 923d
00000350: 233e 7a3d 9513 d5bb d97a 173d 67c0 8fbc
00000360: 3abe 663d 2fdc 8c3d 1438 0ebd 5b51 983c
00000370: 480c 1ebc 6c4a a7bd 31c3 fd3b ac90 843d
00000380: e7dd e73b be6e 933d ec71 32bd 5543 f43b
00000390: 7d7a a53d b0b9 3b3d 6bc5 a53c 3330 a4bd
000003a0: ad2c 2e3b 42f7 8e3d 519c 4ebd 30fd 703d
000003b0: ff2a bbbd 6fd0 9abd d332 7cbd 2127 d0bc
000003c0: cbfc 4c3c 2c9e e0bd eff3 9a3d 58e5 5abd
000003d0: db62 c73d 07bc a83d fdaf f7bc 881e 123d
000003e0: aa6f aebd 32bc ebbc f649 9ebd 4449 f83b
000003f0: 27eb be3d f229 52bd a883 2fbd a0fe 44ba

layers.4.bias f4 [128]
0.015930012 -0.096921414 -0.092184305 -0.10166431 -0.075733595 0.018039823 -0.08165998 -0.032650247
-0.0886339 -0.055439856 -0.08683866 -0.071371056 -0.09403963 -0.11717443 -0.018264351 -0.11690636
0.16785525 -0.10526282 0.08812149 0.00049946096 -0.017309505 -0.0025867177 0.12991312 0.0679951
-0.054501396 -0.072995186 0.22533628 -0.09894127 -0.040198844 -0.012767893 0.0668242 -0.030278875
-0.10118933 0.18465361 -0.09241599 -0.033786412 0.22353333 -0.068430595 0.021878984 -0.0524015
0.21550623 -0.022206996 -0.043778777 0.006906965 -0.10540466 -0.053054772 0.17655455 -0.054016642
-0.038810838 -0.09159332 -0.09827918 -0.030261492 -0.090330325 -0.07801729 -0.015302126 -0.06606136
-0.059691958 -0.041962475 -0.07736896 -0.071613386 0.06294772 -0.022798127 -0.07078842 -0.1038699
0.016071191 0.033572096 -0.05990417 -0.07219358 -0.0057902695 -0.046496097 -0.052313633 -0.15926014
-0.022110447 -0.062353767 -0.043974467 -0.050635837 -0.08814341 -0.036738403 -0.031360045 -0.05930576
-0.03893925 -0.0028940511 -0.10495037 0.1935474 -0.019423438 -0.031186098 -0.04843047 -0.084561355
-0.118720636 0.1053975 -0.007605388 -0.079436705 0.18115163 0.04609728 -0.039307065 0.20319045
-0.10722814 -0.070280865 -0.133745 -0.09589249 -0.09667701 -0.075485446 0.22466189 0.035616774
-0.01812175 -0.0034235606 0.19503912 -0.030895285 0.2523106 -0.042987462 0.24922428 -0.00067528314
-0.090103604 0.1839018 -0.012825939 0.21137461 -0.10425871 -0.08869567 0.084099315 0.00073410524
0.020036358 -0.030255353 -0.04140038 -0.02599671 -0.11159057 0.14838861 -0.10740791 -0.08535194
00000000: a87f 823c bc7e c6bd 20cb bcbd 6135 d0bd
00000010: 371a 9bbd 40c8 933c 593d a7bd 44bc 05bd
00000020: b185 b5bd e714 63bd 78d8 b1bd fd2a 92bd
00000030: d997 c0bd 26f9 efbd 1f9f 95bc 9a6c efbd
00000040: 3fe2 2b3e 0994 d7bd 0a79 b43d 42ee 023a
00000050: aacc 8dbc ec85 29bb f207 053e 0441 8b3d
00000060: db3c 5fbd 807e 95bd 8ebe 663e b8a1 cabd
00000070: 8ba7 24bd 6d30 51bc 20db 883d 670b f8bc
00000080: 5a3c cfbd d615 3d3e 9844 bdbd 9f63 0abd
00000090: ece5 643e 5725 8cbd 8e3b b33c f5a2 56bd
000000a0: aaad 5c3e 72eb b5bc 6051 33bd d253 e23b
000000b0: 66de d7bd f64f 59bd b7ca 343e 8e40 5dbd
000000c0: 1df8 1ebd 4795 bbbd 9846 c9bd f3e6 f7bc
000000d0: 1bff b8bd 87c7 9fbd c5b5 7abc 2e4b 87bd
000000e0: 8e7f 74bd d8e0 2bbd 9e73 9ebd 0aaa 92bd
000000f0: bcea 803d 23c3 babc 85f9 90bd beb9 d4bd
00000100: bba7 833c e582 093d 135e 75bd 3ada 93bd
00000110: 4dbc bdbb b172 3ebd d246 56bd 1715 23be
00000120: f820 b5bc aa66 7fbd 921e 34bd 8667 4fbd
00000130: 8884 b4bd 027b 16bd 6473 00bd 99ea 72bd
00000140: c37e 1fbd 1faa 3dbb 38f0 d6bd 4a31 463e
00000150: e71d 9fbc fd79 ffbc 075f 46bd 812e adbd
00000160: ce23 f3bd a5da d73d 9e36 f9bb b6af a2bd
00000170: d07f 393e 80d0 3c3d 7200 21bd 2811 503e
00000180: 6d9a dbbd 6aef 8fbd 73f4 08be 4863 c4bd
00000190: 99fe c5bd 1d98 9abd c40d 663e e5e2 113d
000001a0: 1074 94bc d15d 60bb 56b8 473e 1c18 fdbc
000001b0: db2e 813e 9f13 30bd a634 7f3e 7c05 31ba
000001c0: 3d88 b8bd c150 3c3e e323 52bc 9672 583e
000001d0: 9785 d5bd 13a6 b5bd 433c ac3d f870 403a
000001e0: 4a23 a43c 13da f7bc 7293 29bd 0df7 d4bc
000001f0: 9989 e4bd 2ff3 173e aef8 dbbd ffcc aebd

lstm.weight_ih_l0 f4 [512, 32]
-0.15676248 -0.051745497 -0.07968854 -0.04658756 0.058081027 -0.05980722 0.22021729 0.29892817
-0.17356558 0.13866405 0.044759195 -0.05497184 -0.046905804 -0.11700719 0.07079788 0.087908
0.0020255002 -0.059361685 0.03274885 0.055335775 0.11085246 -0.22165321 0.019047821 0.08419166
-0.10307632 0.08566347 0.33265862 0.01757296 -0.24091464 0.23475763 0.22147468 0.024694927
0.049600746 -0.10543028 0.017050887 0.017058212 -0.084336415 0.1027243 -0.019994847 -0.14268783
0.06962262 -0.12072225 -0.090063214 0.058078133 0.040549595 0.034303028 -0.23087229 0.1193444
-0.083132915 -0.13312316 0.31646916 -0.48139757 -0.18500246 -0.23826222 -0.31807527 0.29294968
-0.09078367 0.42151836 -0.10549195 -0.42340598 -0.07804158 0.2589336 0.2910118 0.103526995
-0.085387446 -0.20319214 -0.19930825 -0.059713904 -0.034256298 -0.03086609 -0.055203773 0.11529972
0.06211623 0.062097814 -0.027520735 -0.06681269 0.009762842 0.13973531 0.12156632 0.18202624
-0.22567007 0.14448242 -0.10501793 0.09591101 -0.13214222 0.15932877 -0.15062392 -0.17352329
0.1617799 -0.010982982 -0.270217 -0.20300539 -0.4575071 0.27927497 0.090298906 0.0008879136
0.22843382 -0.08687244 -0.073301695 0.0958059 -0.084574126 0.24250562 -0.004806096 0.14199528
-0.23861192 -0.040154967 0.0014177324 0.02523063 -0.095711626 0.17184734 -0.11879761 0.10802686
0.059034813 -0.10309332 0.022908587 0.027185338 -0.16605663 0.09600123 -0.13260134 -0.143795
0.06310674 -0.07858757 0.05599706 0.39339218 0.24811186 -0.17504996 0.109327085 0.061782148
0.033124875 -0.2520186 0.0882398 -0.11533192 -0.108868755 0.1068985 -0.08511304 -0.1179364
-0.09154553 -0.024376059 -0.08418287 0.10105632 -0.09131914 0.18251985 -0.016126558 0.3516547
0.011225221 -0.07304975 -0.10431257 -0.17989847 -0.111686714 0.21955663 -0.069943964 0.20342554
-0.17323236 0.10556264 0.01428402 0.0053528068 0.15352137 0.09780201 -0.026721586 0.12396947
-0.14968303 0.02692428 -0.1785629 0.029578444 0.19486357 -0.20879903 -0.09379397 -0.10954371
0.21553138 0.03174226 -0.13987868 -0.2526658 -0.035308942 0.012635881 0.0075985827 -0.06098505
0.36965385 0.3275953 0.20040101 0.09758741 0.31301692 -0.120923966 -0.10186959 -0.37523913
-0.051591497 -0.23033658 0.4106348 0.56622535 0.053027745 -0.24208124 -0.1872576 -0.22293058
0.02673236 -0.18378858 0.056596898 -0.1501514 -0.11654374 0.19904304 -0.20228246 0.07973791
-0.13293612 0.033706866 0.036835354 -0.031768866 -0.08099415 0.094741166 -0.028757697 0.13579279
-0.24894583 -0.5567234 -0.22124194 0.028307324 -0.19313757 -0.03705769 -0.14142136 0.5115028
-0.03468821 0.2738254 -0.15211481 -0.3471631 -0.087025955 0.20306504 0.18184242 0.30229342
-0.12440729 0.1271626 0.21830437 -0.37898555 -0.03972672 0.009032699 -0.13913256 -0.085760325
0.23687285 0.23588319 -0.08449475 -0.15255085 -0.23352319 -0.07634918 0.17132919 -0.039255574
-0.332048 -0.081954636 0.0067733834 -0.11368038 -0.1105595 -0.08859226 -0.06700878 0.6439738
-0.28319845 0.11016702 -0.09399081 -0.36567026 0.3018051 -0.045482 0.16472779 0.101209186
00000000: 5886 20be 16f3 53bd bf33 a3bd 99d2 3ebd
00000010: 5fe6 6d3d 6af8 74bd a480 613e 1d0d 993e
00000020: 2dbb 31be f3fd 0d3e 6b55 373d 272a 61bd
00000030: 4d20 40bd 77a1 efbd 7bfe 903d 1c09 b43d
00000040: 41be 043b 3d25 73bd a823 063d c4a7 623d
00000050: 9d06 e33d 0ff9 62be 2d0a 9c3c ad6c ac3d
00000060: ad19 d3bd 5470 af3d 3b52 aa3e 2bf5 8f3c
00000070: 54b2 76be 4e64 703e 42ca 623e 044d ca3c
00000080: 272a 4b3d d5eb d7bd 4dae 8b3c aabd 8b3c
00000090: 92b8 acbd 1e61 d23d 3ccc a3bc c21c 12be
000000a0: 4e96 8e3d 3a3d f7bd 1073 b8bd 56e3 6d3d
000000b0: 5517 263d 5581 0c3d c969 6cbe d66a f43d
000000c0: 9741 aabd 7051 08be 3f08 a23e be79 f6be
000000d0: 4971 3dbe 03fb 73be c3da a2be 80fd 953e
000000e0: caec b9bd 41d1 d73e 2a0c d8bd abc8 d8be
000000f0: 44d4 9fbd f292 843e 80ff 943e f605 d43d
00000100: 9ddf aebd 9a11 50be 7617 4cbe 9196 74bd
00000110: 5550 0cbd e2da fcbc 5a1d 62bd 4222 ec3d
00000120: 976d 7e3d 475a 7e3d 2a73 e1bc 17d5 88bd
00000130: 54f4 1f3c c616 0f3e c3f7 f83d 1665 3a3e
00000140: 0e16 67be 33f3 133e a413 d7bd fe6c c43d
00000150: 4a50 07be 1527 233e 283d 1abe 17b0 31be
00000160: a1a9 253e f7f1 33bc e259 8abe a5e0 4fbe
00000170: 5f3e eabe 21fd 8e3e a2ee b83d dfc2 683a
00000180: 8eea 693e 2eea b1bd 331f 96bd e235 c43d
00000190: 3335 adbd 6553 783e 757c 9dbb 3667 113e
000001a0: af56 74be 8979 24bd 35d3 b93a 77b0 ce3c
000001b0: 7504 c4bd c0f8 2f3e 294c f3bd 303d dd3d
000001c0: 7dce 713d 9722 d3bd caaa bb3c c9b3 de3c
000001d0: c00a 2abe 4b9c c43d a5c8 07be ff3e 13be
000001e0: 1b3e 813d 85f2 a0bd 2c5d 653d b36a c93e
000001f0: 0911 7e3e 4c40 33be e1e6 df3d 470f 7d3d
00000200: f3ad 073d 9508 81be 11b7 b43d 2433 ecbd
00000210: 95f6 debd 9aed da3d bf4f aebd a488 f1bd
00000220: 397c bbbd 4db0 c7bc 1268 acbd 9ef6 ce3d
00000230: 8705 bbbd 7ce6 3a3e d81b 84bc 160c b43e
00000240: fde9 373c 1b9b 95bd d4a1 d5bd 4e37 38be
00000250: 01bc e4bd 74d3 603e c83e 8fbd c94e 503e
00000260: d363 31be 3a31 d83d 8607 6a3c 9966 af3b
00000270: b534 1d3e 6c4c c83d 3ae7 dabc b5e3 fd3d
00000280: 8246 19be 4f90 dc3c 31d9 36be 7e4e f23c
00000290: 518a 473e 6acf 55be 0e17 c0bd 7458 e0bd
000002a0: 42b4 5c3e 2c04 023d 5b3c 0fbe 695d 81be
000002b0: 1ca0 10bd ba06 4f3c 88fd f83b 76cb 79bd
000002c0: 4543 bd3e 92ba a73e ec35 4d3e e8db c73d
000002d0: c143 a03e fca6 f7bd 01a1 d0bd 581f c0be
000002e0: 9b51 53bd 5add 6bbe b93e d23e 25f4 103f
000002f0: 9f33 593d 25e4 77be 75c0 3fbe ea47 64be
00000300: d2fd da3c 1333 3cbe 26d2 673d 4ac1 19be
00000310: 7cae eebd f0d1 4b3e 2223 4fbe a14d a33d
00000320: 6820 08be 3610 0a3d abe0 163d 1220 02bd
00000330: 43e0 a5bd a807 c23d 4395 ebbc 440d 0b3e
00000340: a8eb 7ebe 6d85 0ebf 3f8d 62be c3e4 e73c
00000350: dbc5 45be cec9 17bd c3d0 10be d9f1 023f
00000360: 3915 0ebd d832 8c3e fcc3 1bbe 5dbf b1be
00000370: aa3a b2bd 48f0 4f3e e634 3a3e 34c6 9a3e
00000380: 40c9 febd ea36 023e 2e8b 5f3e 650a c2be
00000390: 7cb8 22bd e3fd 133c c478 0ebe 1ca3 afbd
000003a0: cc8e 723e 5d8b 713e 950b adbd 4a36 1cbe
000003b0: b420 6fbe f55c 9cbd eb70 2f3e 74ca 20bd
000003c0: 3202 aabe d5d7 a7bd 42f3 dd3b 42d1 e8bd
000003d0: 056d e2bd dc6f b5bd e63b 89bd 78db 243f
000003e0: 63ff 90be 3f9f e13d 417e c0bd 2239 bbbe
000003f0: 3386 9a3e 554b 3abd 67ae 283e c346 cf3d

lstm.weight_hh_l0 f4 [512, 128]
-0.026663719 -0.3208038 -0.024672125 -0.020086288 0.01693747 0.15708162 0.038462304 0.104017206
0.1740185 0.14497828 0.112451926 -0.15278128 0.044193007 -0.20833653 -0.16648899 -0.10876209
0.19420837 -0.31757587 -0.07399589 -0.028813953 0.0048690136 0.06828986 -0.07114464 -0.009445151
0.026786858 -0.081765376 0.022619715 0.103338465 -0.22996 -0.0079194615 0.022036893 0.0260061
-0.20093203 -0.06405456 -0.12938872 -0.16897605 0.16532157 0.18692048 0.28219622 0.13945402
0.07866666 0.055369828 -0.03762343 -0.0820118 0.07845966 -0.00029063752 -0.17774877 0.1061289
0.14200765 0.017640835 -0.16780885 0.16628183 -0.23281038 -0.1256231 -0.09893533 -0.070632085
0.1849102 -0.07394198 0.11030612 0.15367612 0.01672556 -0.061511368 -0.037488088 0.1735117
0.00484383 0.075909495 -0.049108755 -0.31315 -0.35978553 0.152032 0.1648593 -0.18421888
-0.099596776 -0.1308031 0.059378818 -0.16956563 0.1851014 -0.03713303 0.18530755 -0.08982143
0.2477666 -0.0037770446 0.11707863 0.042217493 -0.0926165 0.112788714 0.1999072 0.04076087
0.03155128 0.0070237857 0.025217231 0.113311425 -0.02867834 0.19375011 0.032176487 0.19730942
-0.05442172 0.1123452 -0.023988146 0.053190023 -0.043024004 0.14060403 0.015220628 -0.12221464
-0.16947429 0.27817884 -0.0913755 -0.18098949 0.12869431 -0.26583266 -0.098721296 -0.02409045
-0.060933966 -0.023793584 0.011128309 -0.05393528 -0.072564006 -0.025620027 0.055630326 0.106131054
-0.0042498084 0.033813756 -0.025954543 -0.2205601 0.119617 -0.03547763 0.38443732 0.14611515
0.029428685 -0.02802099 0.002245519 -0.14856991 -0.08195485 -0.04770603 -0.12313245 0.2281164
-0.17499284 0.080652736 0.21624313 0.13556363 -0.06965586 -0.093670085 -0.11754575 -0.34063998
0.018253861 -0.26977572 -0.056960154 0.12130444 0.004862867 -0.12643549 0.07794978 -0.1968049
-0.07329634 -0.014575215 0.113606825 -0.017278304 0.11439005 0.041224193 0.05179231 0.06186078
0.3294319 0.20937452 -0.14010572 -0.22720283 -0.21628274 -0.06551573 -0.117895715 -0.21330969
0.027657844 0.19191326 -0.2644982 -0.092789 0.07461485 -0.028698893 -0.08833827 -0.018517917
0.12116183 -0.10877523 0.12056557 -0.07471036 -0.022779578 -0.30660072 -0.124224 -0.038960982
-0.22933736 -0.1010205 0.12560567 -0.11127499 -0.30155897 0.061847694 0.05076894 0.23332103
-0.085841715 -0.09702858 0.19743447 0.30553055 -0.08221716 0.5892191 -0.022527924 0.038858496
-0.1401498 0.24859354 -0.033703376 0.1797229 0.06010797 -0.040491294 0.04332503 0.004109654
-0.048134442 -0.2306938 -0.03707525 -0.07094962 0.05435056 -0.35092467 -0.10168516 0.16727807
0.045980096 -0.048540007 -0.12563783 0.057216316 -0.1060779 0.0629601 0.14509942 0.34153518
0.007893931 -0.09923078 0.047494642 -0.028531795 0.051820274 -0.09715216 -0.089711644 0.21689881
-0.12824143 -0.028758392 -0.18647033 -0.047463994 0.07977741 -0.1093948 0.17384619 -0.052956387
0.06343098 -0.0716032 0.005689776 0.093655646 -0.21449243 -0.09979222 -0.11641163 0.01022593
0.22892231 -0.016935037 -0.1056732 -0.15442534 -0.096250296 0.14164566 -0.14495927 -0.27327517
00000000: df6d dabc 6540 a4be 321d cabc 008c a4bc
00000010: 73c0 8a3c 01da 203e a68a 1d3d f906 d53d
00000020: e831 323e 3075 143e 324d e63d b272 1cbe
00000030: ba03 353d 2c56 55be 177c 2abe a9be debd
00000040: 8fde 463e 4e99 a2be 288b 97bd 3d0b ecbc
00000050: 3f8c 9f3b 8edb 8b3d 48b4 91bd d6bf 1abc
00000060: 1d70 db3c 9b74 a7bd fb4c b93c 1ea3 d33d
00000070: a27a 6bbe a1c0 01bc b786 b43c bf0a d53c
00000080: 20c1 4dbe 0a2f 83bd 7a7e 04be 0f08 2dbe
00000090: 0f4a 293e 1568 3f3e 067c 903e 09cd 0e3e
000000a0: fc1b a13d 79cb 623d 071b 1abd cdf5 a7bd
000000b0: 75af a03d b560 98b9 c603 36be 1c5a d93d
000000c0: 746a 113e 8383 903c 15d6 2bbe c945 2a3e
000000d0: d865 6ebe 58a3 00be 9b9e cabd 8ea7 90bd
000000e0: 1959 3d3e e56e 97bd 2de8 e13d 465d 1d3e
000000f0: 0b04 893c 58f3 7bbd 1c8d 19bd 0dad 313e
00000100: feb8 9e3b 7076 9b3d 4326 49bd 3255 a0be
00000110: cf35 b8be 47ae 1b3e e0d0 283e e0a3 3cbe
00000120: 65f9 cbbd 3ff1 05be 3437 733d 9da2 2dbe
00000130: 398b 3d3e ce18 18bd 43c1 3d3e 4cf4 b7bd
00000140: 87b6 7d3e 4b88 77bb ecc6 ef3d 40ec 2c3d
00000150: b8ad bdbd c5fd e63d 79b4 4c3e dff4 263d
00000160: ea3b 013d c927 e63b 5e94 ce3c d20f e83d
00000170: d7ee eabc 6e66 463e 7ecb 033d 7b0b 4a3e
00000180: 4fe9 5ebd 3d15 e63d ca82 c4bc c8dd 593d
00000190: f039 30bd 81fa 0f3e f15f 793c ab4b fabd
000001a0: ab8a 2dbe 756d 8e3e 1423 bbbd 4f55 39be
000001b0: 71c8 033e 381b 88be 642e cabd 5659 c5bc
000001c0: e595 79bd c3ea c2bc 8353 363c 3deb 5cbd
000001d0: 709c 94bd 17e1 d1bc a0dc 633d 3d5b d93d
000001e0: fa41 8bbb 4b80 0a3d 9f9e d4bc 82da 61be
000001f0: c2f9 f43d fe50 11bd f8d4 c43e 369f 153e
00000200: 6d14 f13c 468c e5bc 8f29 133b b622 18be
00000210: f2d7 a7bd 6667 43bd de2c fcbd 5897 693e
00000220: 5331 33be 432d a53d d76e 5d3e 31d1 0a3e
00000230: bba7 8ebd 1ad6 bfbd d4bb f0bd 5d68 aebe
00000240: 1f89 953c 0b20 8abe 0d4f 69bd 766e f83d
00000250: af58 9f3b 4e78 01be 22a4 9f3d 3987 49be
00000260: 641c 96bd e2cc 6ebc b2aa e83d 3b8b 8dbc
00000270: 5545 ea3d b3da 283d 2c24 543d bb61 7d3d
00000280: 4cab a83e 4666 563e e077 0fbe dca7 68be
00000290: 3979 5dbe 1c2d 86bd 4f73 f1bd db6d 5abe
000002a0: b492 e23c e984 443e 4f6c 87be 2908 bebd
000002b0: accf 983d f119 ebbc b2ea b4bd e3b2 97bc
000002c0: b223 f83d 8cc5 debd 15eb f63d bf01 99bd
000002d0: 3d9c babc c5fa 9cbe 2769 febd 8d95 1fbd
000002e0: 6ad7 6abe d6e3 cebd c69e 003e 24e4 e3bd
000002f0: f065 9abe 0254 7d3d 18f3 4f3d b5eb 6e3e
00000300: c8cd afbd ecb6 c6bd 432c 4a3e 806e 9c3e
00000310: 7861 a8bd 10d7 163f 7b8c b8bc 162a 1f3d
00000320: 6e83 0fbe 4e8f 7e3e 8d0c 0abd 4809 383e
00000330: c633 763d 33da 25bd 9675 313d 47aa 863b
00000340: 9f28 45bd ff3a 6cbe 38dc 17bd 094e 91bd
00000350: b19e 5e3d 66ac b3be 4f40 d0bd f14a 2b3e
00000360: a055 3c3d e3d1 46bd 34a7 00be a85b 6a3d
00000370: 5f3f d9bd 3af1 803d f194 143e b3dd ae3e
00000380: 8c55 013c 8239 cbbd be89 423d 83bb e9bc
00000390: 7f41 543d b6f7 c6bd bdba b7bd b91a 5e3e
000003a0: b951 03be b896 ebbc 14f2 3ebe 9b69 42bd
000003b0: 5762 a33d 620a e0bd bc04 323e cce8 58bd
000003c0: 1ae8 813d b3a4 92bd 4d71 ba3b 88ce bf3d
000003d0: e7a3 5bbe dd5f ccbd 3869 eebd a98a 273c
000003e0: 9c6a 6a3e 59bb 8abc 316b d8bd ad21 1ebe
000003f0: e01e c5bd 8f0b 113e 3470 14be b9ea 8bbe
