models/5-way-4-shot_relation_network.pkl (torch, 87067 bytes, 7 tensors)

layers.0.weight f4 [256, 32]
-0.06272512 0.14959067 0.11441529 0.37545583 -0.0603995 0.096864894 -0.6400226 -0.085230865
-0.06385184 -0.14231877 -0.14931853 0.4149345 -0.041908696 -0.12852259 0.12582763 -0.33506277
0.2989407 -0.13235667 -0.21552308 0.17774166 0.02960611 -0.0124121895 -0.09423374 0.09171581
-0.023069542 -0.119802 0.6244845 0.03819433 -0.25734562 -0.032973032 -0.44274062 0.017941104
0.0045675226 0.077628314 0.4440309 0.52023983 -0.07640829 -0.14511816 -0.38421845 -0.103496425
-0.0024629338 -0.078876555 -0.17371069 0.35229895 0.123991966 -0.15112533 -0.01645215 -0.41039428
0.21155232 -0.15994775 -0.24784818 0.2685167 -0.21016118 0.2182973 -0.19141388 -0.09321314
0.13787556 0.013953154 0.35142657 0.013663894 -0.195594 -0.032543726 -0.5452002 -0.07917335
-0.036952462 0.17290963 0.12880664 0.533279 -0.16018271 0.099931814 -0.90228474 0.06054216
-0.0042832703 -0.1827616 -0.27882025 0.3147899 -0.06445296 -0.08277387 0.2783581 -0.473954
-0.03602364 -0.08235661 0.0069011566 0.15960106 0.060826574 -0.09658639 -0.055056058 0.03836184
0.1805023 -0.07135551 0.70949227 0.11820445 -0.32967222 -0.008648078 -0.5964315 0.1762044
-0.00012697032 -0.19316997 0.03178815 -0.08863673 0.029216567 -0.3511392 0.7678039 -0.24402317
-0.074737154 0.16583091 -0.2923267 -0.30388156 0.36753756 0.25780815 0.66530687 0.1656648
0.46883377 0.4130254 -0.027362876 0.0795741 -0.24905334 -0.22174677 0.21256272 -0.4149013
-0.5006789 -0.022537312 -0.08342017 -0.12515257 0.13009623 0.27341083 -0.4824697 0.03891003
-0.12030413 -0.26997748 0.025518442 -0.033192307 -0.18868294 -0.047120415 0.082650736 -0.24660683
-0.10322811 0.08996626 -0.25154963 0.1851297 0.22044057 -0.09042911 0.050162006 0.2318811
0.12897119 -0.044146378 -0.16789997 0.2378709 -0.41738144 0.15390778 0.12920852 0.10142004
-0.049442306 0.070276864 -0.21006928 0.06701053 -0.21918446 0.032759942 -0.0076108417 -0.04950068
-0.06352694 -0.012403141 0.053399984 -0.7446522 0.1752253 0.3166941 0.0031895137 -0.095984094
-0.03563203 -0.09215444 -0.1893426 -0.28916085 0.16132261 0.12578163 0.10318693 0.4524542
0.18231669 0.039921667 0.14543645 -0.14120293 -0.14398487 -0.16846317 0.10915536 -0.29651156
0.0071432553 -0.054717567 -0.17321278 0.19068222 0.1899286 0.16053239 -0.120272376 0.030776767
-0.2564862 -0.08910487 0.109061286 -0.15524994 -0.21145315 -0.16671175 0.17748684 -0.27605975
-0.08074269 0.2346729 0.16291444 0.12978877 0.28811458 -0.28008103 -0.08694545 0.20125963
0.08934738 -0.11385818 -0.07328577 0.16418947 -0.30751866 0.14493848 0.215868 -0.06873605
0.03833114 -0.21787271 0.06584492 -0.14923653 -0.020109726 0.1610296 -0.23341252 0.19611524
-0.2288262 -0.13280168 0.31642547 0.44119686 -0.10987545 -0.05053135 -0.5423411 -0.2557409
0.23390011 -0.08922725 -0.108839035 0.57115686 0.0149329025 -0.14833756 0.18464413 -0.54053926
0.09436401 -0.16403615 -0.025056312 0.17815024 0.025490459 0.08168775 0.001250871 0.3007157
0.07375868 0.07075515 0.4918152 0.08623552 -0.29374507 0.04071071 -0.636618 0.15033364
00000000: 0776 80bd 4c2e 193e 9052 ea3d bf3b c03e
00000010: 7765 77bd 1a61 c63d 85d8 23bf 858d aebd
00000020: c1c4 82bd 03bc 11be f5e6 18be 4b72 d43e
00000030: 74a8 2bbd 6d9b 03be f5d8 003e 598d abbe
00000040: c10e 993e 8288 07be 15b2 5cbe e901 363e
00000050: 8388 f23c 7f5c 4bbc 9efd c0bd 80d5 bb3d
00000060: 56fc bcbc c05a f5bd 37de 1f3f a871 1c3d
00000070: cec2 83be bb0e 07bd e6ae e2be 39f9 923c
00000080: 28ab 953b 98fb 9e3d 0558 e33e 702e 053f
00000090: f37b 9cbd db99 14be 48b8 c4be eff5 d3bd
000000a0: 2c69 21bb 088a a1bd 37e1 31be 8760 b43e
000000b0: 80ef fd3d 99c0 1abe a9c6 86bc 331f d2be
000000c0: 2ca1 583e 58c9 23be eacb 7dbe 057b 893e
000000d0: 7e34 57be 5489 5f3e 0002 44be 88e6 bebd
000000e0: 402f 0d3e c59b 643c 2fee b33e 86de 5f3c
000000f0: cb49 48be 924c 05bd 3e92 0bbf a325 a2bd
00000100: 775b 17bd 390f 313e e3e5 033e f984 083f
00000110: f006 24be 0da9 cc3d 22fc 66bf 0efb 773d
00000120: ad5a 8cbb db25 3bbe 87c1 8ebe 242c a13e
00000130: eaff 83bd 5985 a9bd f484 8e3e 19aa f2be
00000140: 868d 13bd 95aa a8bd 1923 e23b 766e 233e
00000150: 4925 793d 16cf c5bd 7682 61bd 4e21 1d3d
00000160: 98d5 383e d622 92bd 49a1 353f 2d15 f23d
00000170: ccca a8be abb0 0dbc bcaf 18bf ed6e 343e
00000180: 5623 05b9 59ce 45be 4b34 023d 2d87 b5bd
00000190: 9557 ef3c 84c8 b3be cc8e 443f 36e1 79be
000001a0: cb0f 99bd 94cf 293e d8ab 95be 5d96 9bbe
000001b0: e22d bc3e 6eff 833e 8d51 2a3f 09a4 293e
000001c0: fb0a f03e 1178 d33e 1c28 e0bc bff7 a23d
000001d0: d707 7fbe 9611 63be 0baa 593e f16d d4be
000001e0: 7e2c 00bf 2ba0 b8bc 32d8 aabd ff27 00be
000001f0: f237 053e 81fc 8b3e 4506 f7be 2060 1f3d
00000200: 0362 f6bd 7d3a 8abe 0d0c d13c a8f4 07bd
00000210: 1a36 41be 5601 41bd ca44 a93d 8086 7cbe
00000220: 4269 d3bd 3b40 b83d 1dcb 80be a492 3d3e
00000230: 2cbb 613e e632 b9bd ad76 4d3d 3d72 6d3e
00000240: 0611 043e d5d2 34bd f8ed 2bbe 6e94 733e
00000250: 05b3 d5be 009a 1d3e 3d4f 043e 4fb5 cf3d
00000260: 0484 4abd 51ed 8f3d 671c 57be d13c 893d
00000270: e471 60be 4a2f 063d 5e64 f9bb 3ac1 4abd
00000280: 6a1a 82bd 8b36 4bbc f1b9 5a3d 87a1 3ebf
00000290: 436e 333e bb25 a23e 2907 513b 4f93 c4bd
000002a0: e4f2 11bd 78bb bcbd 07e3 41be e40c 94be
000002b0: c131 253e e6cc 003e ab53 d33d 14a8 e73e
000002c0: 3ab1 3a3e e784 233d 4bed 143e 8097 10be
000002d0: c570 13be 9c81 2cbe d88c df3d 5dd0 97be
000002e0: f811 ea3b 871f 60bd b15e 31be 3342 433e
000002f0: a57c 423e 9a62 243e 5d51 f6bd 8f1f fc3c
00000300: 2952 83be 9d7c b6bd 865b df3d d7f9 1ebe
00000310: 2d87 58be 7cb6 2abe 1cbf 353e b457 8dbe
00000320: 6c5c a5bd 184e 703e 0bd3 263e 59e7 043e
00000330: c183 933e c866 8fbe 7510 b2bd 0117 4e3e
00000340: c2fb b63d 7a2e e9bd da16 96bd 4921 283e
00000350: 1673 9dbe c16a 143e 800c 5d3e 7cc5 8cbd
00000360: 1d01 1d3d 061a 5fbe b4d9 863d 76d1 18be
00000370: 27bd a4bc f2e4 243e b103 6fbe 6fd2 483e
00000380: 6a51 6abe 2afd 07be 8502 a23e 8ee4 e13e
00000390: 6106 e1bd f6f9 4ebd ded6 0abf 79f0 82be
000003a0: 8383 6f3e c7bc b6bd 00e7 debd 5637 123f
000003b0: 22a9 743c cde5 17be 5a13 3d3e c860 0abf
000003c0: eb41 c13d 18f9 27be e542 cdbc 046d 363e
000003d0: 5ed1 d03c e84b a73d 44f4 a33a 69f7 993e
000003e0: ca0e 973d 13e8 903d 34cf fb3e 409c b03d
000003f0: c165 96be 46c0 263d 66f9 22bf 10f1 193e

layers.0.bias f4 [256]
0.09246592 -0.080183506 0.1186114 -0.15393716 -0.044037156 -0.14989008 -0.1457735 -0.16328424
-0.13366218 0.019895904 0.038850315 -0.18781029 -0.21810846 -0.041433763 -0.2279879 -0.14774998
-0.14957467 0.08561133 -0.23365459 -0.14965868 -0.16656187 0.016160721 -0.2559999 -0.25895774
-0.08124559 -0.25074184 -0.23737402 -0.34382612 -0.19894157 -0.21352209 -0.23076954 -0.09699162
-0.08205694 -0.18060718 -0.24481842 -0.19913882 -0.07041582 -0.23500915 -0.22461452 -0.071515165
-0.24321523 -0.12125849 -0.21814224 -0.27082416 0.10530664 -0.4331475 -0.11606841 -0.042125516
-0.023875952 -0.13485298 -0.15667315 -0.111347735 -0.0019667896 -0.2854693 -0.18529746 -0.07361104
-0.23132244 -0.2513285 -0.03105447 -0.12933871 -0.17948937 -0.22125931 -0.34718943 -0.12472458
-0.21063866 -0.21111757 -0.26502323 -0.17624778 -0.07818303 -0.24238636 0.0006005691 -0.1322349
-0.25862104 -0.23204015 -0.22537942 -0.15028164 -0.24654594 -0.14737354 -0.16650374 0.018650489
-0.07817022 -0.25135982 -0.18691817 0.06794515 -0.14563915 0.009522981 -0.034218106 -0.08570403
0.03232553 -0.18513824 -0.27293304 -0.05089032 0.08843121 -0.012689754 -0.17778502 -0.07416964
0.039525878 -0.11550535 -0.009640485 0.06308576 -0.27113363 -0.0562135 -0.27683765 -0.17111114
-0.14564817 -0.13115296 -0.057419274 -0.05458643 -0.001112709 -0.33235484 -0.32535952 -0.071529195
-0.41518143 -0.097963355 0.15865962 -0.21031919 0.019984372 -0.16259246 -0.16722636 -0.28015274
-0.24348882 -0.14138748 0.05620841 -0.24707103 -0.20920588 0.05715611 -0.33277813 -0.28977334
-0.3663475 -0.22617663 -0.08198445 -0.15819289 -0.1806585 -0.09029393 -0.11425228 -0.25301075
-0.06557689 -0.114490315 -0.28413537 -0.14616656 -0.15894598 -0.13182335 -0.24727915 -0.29773092
-0.28478605 -0.026980184 -0.14150374 -0.1215046 -0.17593484 -0.048145775 -0.083600715 -0.06582885
-0.15353121 -0.10898283 -0.22908977 -0.26199442 -0.0855404 -0.17375632 -0.19979511 -0.11795408
-0.025519308 -0.18921924 -0.18475564 -0.21254437 -0.24825852 -0.010049129 -0.24977249 -0.19908823
-0.22505015 -0.3491958 -0.12527685 -0.20230076 -0.31799313 -0.2813873 0.020794103 -0.2804191
-0.28619057 -0.29623154 -0.3241246 -0.1612455 -0.13102923 -0.062806234 -0.036588084 -0.12326096
0.06957434 -0.22452119 -0.1486785 -0.28849322 -0.23178202 -0.044513974 -0.10278252 -0.12824234
-0.12923259 -0.14188412 -0.061976 -0.22789049 -0.17881091 -0.06581639 -0.14383782 -0.08982069
-0.08575718 -0.06363271 -0.13027973 0.034026563 -0.2481035 -0.07402678 -0.06935701 -0.14524446
-0.0051375916 -0.16316788 0.057588063 -0.07226622 -0.19001156 -0.05395303 -0.3107872 0.042807154
-0.2497611 0.0012229733 -0.13583772 -0.11261974 -0.18174797 -0.08283891 -0.24959707 0.007158816
-0.28863728 -0.23504415 -0.14857309 -0.126936 -0.1996477 -0.32478872 -0.358361 -0.078705594
-0.26261818 -0.31676802 -0.041732658 0.045060135 -0.16390644 -0.28965023 -0.24156122 -0.31174767
-0.1519922 0.027587978 -0.26205194 0.25945196 -0.041179173 -0.23952088 -0.26022378 -0.07805689
-0.27095383 -0.08048811 -0.1478568 -0.2059546 -0.2466524 -0.18583377 -0.2085985 0.022928044
00000000: c65e bd3d 4037 a4bd 89ea f23d b4a1 1dbe
00000010: 4e60 34bd c97c 19be a645 15be fc33 27be
00000020: bdde 08be bcfc a23c 8221 1f3d 5751 40be
00000030: d357 5fbe 73b6 29bd a975 69be c54b 17be
00000040: 1a2a 19be fe54 af3d 2643 6fbe 2040 19be
00000050: 328f 2abe 7d63 843c 6b12 83be 1c96 84be
00000060: 1664 a6bd 3c61 80be 2d12 73be fa09 b0be
00000070: 57b7 4bbe 89a5 5abe da4e 6cbe 8ba3 c6bd
00000080: 780d a8bd 17f1 38be aeb1 7abe 0ceb 4bbe
00000090: 2b36 90bd 3da6 70be 5901 66be 8b76 92bd
000000a0: 6a0d 79be 5f56 f8bd ae60 5fbe 77a9 8abe
000000b0: 02ab d73d 82c5 ddbe 46b5 edbd ce8b 2cbd
000000c0: 8097 c3bc e616 0abe ed6e 20be 480a e4bd
000000d0: 41e5 00bb 0829 92be 9ebe 3dbe 63c1 96bd
000000e0: cadf 6cbe 21ae 80be f265 febc 5e71 04be
000000f0: 10cc 37be cd91 62be d0c2 b1be 9a6f ffbd
00000100: a9b1 57be 342f 58be 20b1 87be 4c7a 34be
00000110: 6d1e a0bd 2134 78be 836f 1d3a 9668 07be
00000120: fa69 84be ef9b 6dbe ddc9 66be 6ee3 19be
00000130: 8a76 7cbe 17e9 16be f57f 2abe e9c8 983c
00000140: b517 a0bd 3cb2 80be 7a67 3fbe d426 8b3d
00000150: 6e22 15be 4706 1c3c 4928 0cbd 9885 afbd
00000160: c667 043d e194 3dbe e1bd 8bbe 5e72 50bd
00000170: 6c1b b53d b0e8 4fbc 470d 36be 41e6 97bd
00000180: e3e5 213d 128e ecbd 20f3 1dbc 1b33 813d
00000190: 07d2 8abe 2140 66bd aabd 8dbe c237 2fbe
000001a0: cb24 15be f64c 06be 7930 6bbd 0596 5fbd
000001b0: 52d8 91ba 6a2a aabe 8695 a6be e67d 92bd
000001c0: a992 d4be 03a1 c8bd ab77 223e ea5d 57be
000001d0: 44b6 a33c a37e 26be 633d 2bbe 2e70 8fbe
000001e0: 2255 79be e1c7 10be ca3a 663d 3000 7dbe
000001f0: 113a 56be 861c 6a3d e561 aabe 2c5d 94be
00000200: e691 bbbe d99a 67be 77e7 a7bd 51fd 21be
00000210: 8bfe 38be 06ec b8bd 19fd e9bd a08a 81be
00000220: 2d4d 86bd e679 eabd 317a 91be b0ac 15be
00000230: bcc2 22be b3fc 06be bf36 7dbe 3070 98be
00000240: 7acf 91be 8c05 ddbc 5be6 10be 67d7 f8bd
00000250: 4328 34be 8134 45bd da36 abbd 47d1 86bd
00000260: 4937 1dbe 6432 dfbd 8296 6abe 2224 86be
00000270: ce2f afbd 2ded 31be 1797 4cbe e991 f1bd
00000280: de0d d1bc b0c2 41be 9530 3dbe 3ba5 59be
00000290: 7b37 7ebe 1aa5 24bc 5cc4 7fbe c9dd 4bbe
000002a0: 8c73 66be cbc9 b2be 9348 00be ee27 4fbe
000002b0: ffcf a2be ff11 90be 6558 aa3c 1893 8fbe
000002c0: 9287 92be a9ab 97be a9f3 a5be 8a1d 25be
000002d0: 872c 06be 8ea0 80bd 63dd 15bd 3e70 fcbd
000002e0: fe7c 8e3d e2e8 65be 2d3f 18be 62b5 93be
000002f0: 4458 6dbe 4954 36bd a47f d2bd f651 03be
00000300: 8c55 04be 124a 11be 8cda 7dbd 205c 69be
00000310: 351a 37be beca 86bd 394a 13be e9f3 b7bd
00000320: 76a1 afbd de51 82bd 0d68 05be 705f 0b3d
00000330: d80e 7ebe 5a9b 97bd 0c0b 8ebd f7ba 14be
00000340: 3e59 a8bb 7b15 27be 76e1 6b3d 5000 94bd
00000350: 6492 42be dafd 5cbd 801f 9fbe 8e56 2f3d
00000360: 60c1 7fbe 2d4c a03a 0b19 0bbe 2ea5 e6bd
00000370: 241c 3abe 72a7 a9bd 6096 7fbe 8094 ea3b
00000380: 44c8 93be 6aaf 70be 8b23 18be 83fb 01be
00000390: 7270 4cbe b54a a6be 187b b7be 6630 a1bd
000003a0: e475 86be 6b2f a2be ddef 2abd fa90 383d
000003b0: 17d7 27be 094d 94be d35b 77be 649d 9fbe
000003c0: d8a3 1bbe 2f00 e23c ac2b 86be e3d6 843e
000003d0: 7eab 28bd f644 75be 0d3c 85be 4adc 9fbd
000003e0: 76ba 8abe f3d6 a4bd c667 17be c3e5 52be
000003f0: 7292 7cbe 354b 3ebe d89a 55be 98d3 bb3c

lstm.weight_ih_l0 f4 [128, 64]
-0.09964284 0.31966302 -0.17184171 -0.12767847 -0.2939778 0.0162068 -0.016669845 0.1923518
0.08544531 0.049828228 0.0042184284 0.034410752 0.29832095 -0.26749843 -0.25487188 0.013245195
0.14456671 0.3843592 -0.32260582 -0.17858212 -0.047456454 0.0067119817 0.25281852 -0.5187312
-0.17649165 0.31378773 0.07917932 0.07946061 0.047902424 0.37760326 -0.02285838 0.24536633
0.88459224 0.8857961 0.72141457 0.52123785 -0.17482011 0.26085111 0.9534507 1.0020529
-0.40376994 -0.057017792 0.008071368 0.185907 0.054093603 0.20907281 -0.028472172 -0.2705553
0.38264456 -0.4871131 0.32463565 0.49424827 -0.10219945 -0.53898287 0.4664687 0.6455315
0.6424239 -0.87716967 -0.64839 0.8202138 -0.027584339 -0.026930936 0.92975897 0.15209027
-0.007008531 -0.031386096 0.12152837 -0.018180074 -0.109295055 0.1458055 0.056366835 -0.10366061
0.07824218 0.14486933 0.21194693 0.049007 0.04205211 -0.038839135 -0.11186294 0.25534505
0.025690285 -0.022063246 0.4537915 -0.2106774 -0.15109482 0.17614843 -0.061487902 -0.044913802
-0.47023737 0.2783031 0.25104526 -0.06923301 -0.21785465 0.18575677 0.18910722 -0.183008
0.7866319 0.18266873 0.050105814 0.5964654 -0.25146002 -0.18068948 0.33089072 -0.49903598
0.68266815 0.071814574 -0.42382306 0.117389664 -0.37153286 0.18077813 0.3874126 -0.44875634
-0.43862003 -0.92713773 -0.09838 0.16709003 -0.28512546 -0.36744508 0.8962125 0.38853785
0.2933195 0.3029158 -0.30034393 -0.28309953 -0.13763171 -0.30216548 0.36134368 0.03145069
-0.043656934 0.15495706 0.3048271 -0.024502562 0.052046772 0.05814376 0.60463923 0.046376437
0.07825348 0.039181855 0.040255122 -0.17503354 0.24289086 -0.13462569 -0.08067524 0.06665522
-0.059759956 -0.16496271 -0.07693517 0.12223008 0.21813747 -0.22613311 -0.13042186 0.06685899
-0.1584142 0.022439584 -0.11913305 0.13192867 0.22274573 0.5947243 -0.00032377188 0.13254534
-0.584769 -0.059688162 -0.06821668 -0.2730634 -0.15136485 -0.23586245 0.17320333 -0.6817414
-0.17621225 0.12357036 -0.19313546 0.085051194 0.42106476 -0.9870679 0.33292803 0.08095687
0.8850256 -0.24295075 -0.0014484192 0.27202737 -0.09930846 -0.26115218 0.0019412973 0.07603265
-0.89231515 -0.014573897 0.762152 -0.016795868 0.3142995 0.86030084 0.12792507 -0.6454881
-0.13053858 0.13380428 -0.185021 0.1472164 -0.36528885 -0.009145845 0.22446641 0.27175424
-0.075567186 -0.06029668 -0.20668605 -0.045708925 0.097394526 -0.18824331 -0.07846068 0.01608527
-0.051764086 0.16630444 -0.21257918 -0.24537615 -0.29716185 -0.41003418 0.13339423 0.16927008
0.32627076 0.010382058 -0.39814895 -0.09900839 0.3350876 0.19959183 -0.06982422 0.21934368
-0.44286934 -0.28255445 0.2504854 0.32209116 -0.3948431 0.33006358 0.11530495 0.29955855
0.30213296 -0.1421607 -0.14381853 0.47433293 0.2959149 -0.19314443 -0.35096905 -1.1981411
-0.42798096 0.25016433 0.6703808 0.13308822 -0.12204632 -1.0623263 0.08917972 0.9674782
0.56398904 -0.51200086 -0.1300828 -0.42019838 -0.15284649 0.14782618 0.16943827 0.16406722
00000000: 8c11 ccbd dfaa a33e 46f7 2fbe 25be 02be
00000010: 4284 96be 1fc4 843c 338f 88bc dff7 443e
00000020: f3fd ae3d af18 4c3d be3a 8a3b 4af2 0c3d
00000030: 86bd 983e 8ef5 88be 917e 82be 6002 593c
00000040: 4c09 143e bbca c43e 972c a5be 3bde 36be
00000050: b361 42bd 2ff0 db3b 6e71 813e 91cb 04bf
00000060: 3aba 34be c9a8 a03e c428 a23d 3fbc a23d
00000070: 5535 443d 3755 c13e 7f41 bbbc 5041 7b3e
00000080: a374 623f 89c3 623f a0ae 383f d86f 053f
00000090: 0b04 33be 478e 853e 5815 743f 4543 803f
000000a0: efba cebe 7d8b 69bd c53d 043c 685e 3e3e
000000b0: 4191 5d3d 2f17 563e 793e e9bc 3986 8abe
000000c0: fde9 c33e e366 f9be a536 a63e 1c0e fd3e
000000d0: f24d d1bd c8fa 09bf fcd4 ee3e 8d41 253f
000000e0: e575 243f 318e 60bf e3fc 25bf 88f9 513f
000000f0: 8df8 e1bc 449e dcbc af04 6e3f 8dbd 1b3e
00000100: d2a7 e5bb b58e 00bd dee3 f83d 61ee 94bc
00000110: 16d6 dfbd 094e 153e e9e0 663d 044c d4bd
00000120: 703d a03d a058 143e 9e08 593e 90bb 483d
00000130: d53e 2c3d c915 1fbd 6618 e5bd 96bc 823e
00000140: 6f74 d23c fbbd b4bc 5c57 e83e d1bb 57be
00000150: 9ab8 1abe 4160 343e bdda 7bbd 89f7 37bd
00000160: f4c2 f0be be7d 8e3e 0189 803e 09ca 8dbd
00000170: 4a15 5fbe 0637 3e3e 53a5 413e 7366 3bbe
00000180: b560 493f 830d 3b3e c13b 4d3d f5b1 183f
00000190: 5ebf 80be aa06 39be 826a a93e a581 ffbe
000001a0: 57c3 2e3f 8513 933d 56ff d8be fe69 f03d
000001b0: 8e39 bebe e71d 393e f25a c63e 64c3 e5be
000001c0: ce92 e0be e658 6dbf 747b c9bd a619 2b3e
000001d0: f7fb 91be c321 bcbe 2f6e 653f 6fee c63e
000001e0: f92d 963e c817 9b3e aec6 99be 6cf2 90be
000001f0: 54ef 0cbe 6fb5 9abe 0a02 b93e 70d2 003d
00000200: 9dd1 32bd 10ad 1e3e 4c12 9c3e 99b9 c8bc
00000210: ff2e 553d 2728 6e3d a3c9 1a3f 38f5 3d3d
00000220: 5c43 a03d 277d 203d 8ee2 243d fe3b 33be
00000230: 62b8 783e 51db 09be 0f39 a5bd 8882 883d
00000240: dbc6 74bd fceb 28be 3090 9dbd c453 fa3d
00000250: 6e5f 5f3e 708f 67be 4f8d 05be 5eed 883d
00000260: 5537 22be 38d3 b73c 07fc f3bd 4f18 073e
00000270: 7517 643e da3f 183f edbf a9b9 f7b9 073e
00000280: 6cb3 15bf 937b 74bd 30b5 8bbd f7ce 8bbe
00000290: 63ff 1abe ed85 71be 375c 313e 9b86 2ebf
000002a0: fc70 34be 7512 fd3d 4dc5 45be 522f ae3d
000002b0: cd95 d73e 7bb0 7cbf 8b75 aa3e b7cc a53d
000002c0: 0a91 623f 15c8 78be e2d8 bdba 2c47 8b3e
000002d0: 3c62 cbbd bdb5 85be 2173 fe3a 02b7 9b3d
000002e0: c46e 64bf 5bc7 6ebc 651c 433f 7d97 89bc
000002f0: ddeb a03e ad3c 5c3f cafe 023e b53e 25bf
00000300: e8ab 05be fd03 093e 2576 3dbe e5bf 163e
00000310: 2407 bbbe 74d8 15bc 86da 653e 5f23 8b3e
00000320: f8c2 9abd a7f9 76bd 82a5 53be 4839 3bbd
00000330: c876 c73d dbc2 40be feaf a0bd 42c5 833c
00000340: 9406 54bd b64b 2a3e 5bae 59be e343 7bbe
00000350: 9925 98be 00f0 d1be 7f98 083e 2355 2d3e
00000360: f60c a73e 8219 2a3c 2eda cbbe e9c4 cabd
00000370: 9a90 ab3e cd61 4c3e 0000 8fbd a19b 603e
00000380: c5bf e2be faaa 90be 9f3f 803e 22e9 a43e
00000390: e028 cabe 18fe a83e 0025 ec3d bd5f 993e
000003a0: 2cb1 9a3e 9392 11be 2a45 13be c4db f23e
000003b0: 2882 973e a7c7 45be 37b2 b3be b05c 99bf
000003c0: 5220 dbbe 8a15 803e 139e 2b3f 4748 083e
000003d0: 6cf3 f9bd 4ffa 87bf dba3 b63d a7ac 773f
000003e0: 9661 103f 7d12 03bf 6d34 05be 3e24 d7be
000003f0: ca83 1cbe bf5f 173e 3a81 2d3e 3d01 283e

lstm.weight_hh_l0 f4 [128, 32]
-0.044097405 0.102363706 -0.36813813 -0.2663143 -0.11701214 0.056985665 0.037933838 -0.057396002
-0.16695154 0.39205313 -0.08777338 -0.0129177105 -0.12486792 0.03455867 0.69498116 0.316686
0.6298387 -0.39511147 -0.33532473 0.2799839 -0.2903595 -0.2997233 0.42260262 0.06582971
0.1164826 0.0023152595 -0.227032 0.6259824 -0.31596014 0.20999941 -0.34928668 0.2122907
0.4531152 0.069686145 -1.0723137 -0.121501826 0.029042192 0.09920305 0.26899877 0.7117553
0.57843804 -0.4697065 -0.3327745 -0.67264956 -1.051202 0.4290624 0.355372 -0.39705458
-0.022697166 -0.011035219 0.73054457 -0.059981935 0.012561751 -0.6837469 0.007685095 -0.046991978
0.46358788 0.05675686 0.07791012 -0.041982364 -0.82458884 -0.2818925 -0.20758845 0.2771604
0.2036943 -0.7532122 -0.3795483 0.55699706 0.47108385 0.67864007 -0.48473662 -0.11051489
0.4141484 -0.45447406 -0.13830732 -0.12857772 -0.21037786 0.31651217 -0.09117338 -0.47333398
0.068426155 0.17528428 0.14806817 0.13101724 0.13167532 0.46867907 -0.70162743 0.57955503
0.6347585 0.05803695 0.31413728 -0.0038226172 -1.329577 -0.49102357 -0.48927996 0.84860766
-0.36336446 -0.69026244 0.4775974 0.35711214 -1.0285139 0.50781524 -0.5497465 -0.55991745
-0.08784317 0.77749515 -0.88932395 -0.023100054 0.29006705 -0.43516466 0.3866201 -0.54402804
0.5828263 0.043754112 -0.7125627 -0.24146964 -0.7273426 -0.4345389 0.43489388 0.5408812
0.39049897 0.301201 -0.3106074 0.17103896 0.47209635 0.36577734 -0.83638555 0.49074453
1.0507935 0.24293484 -0.5508717 0.6382786 0.5721344 0.12660958 -0.3691147 -0.05787203
0.49009794 -0.37741446 -0.17758454 0.26259112 -0.4549908 0.32921526 0.12195605 -0.42149246
0.1844583 -0.17263356 0.08793876 0.10563947 -0.22976924 0.038911536 -0.5477932 -0.16378793
0.17290856 0.07495175 0.18948309 0.12460188 -0.16685651 -0.33104888 -0.42061806 0.4136399
-0.37201163 -0.5051354 0.1712077 -0.113186195 -0.3459111 0.014940545 -0.61245084 -0.10739345
-0.28566068 0.37699887 -0.055437174 0.4644341 0.11300816 -0.7088152 -0.35803267 0.21833728
0.061436426 0.03304701 0.13316849 -0.11654625 -0.54973805 0.63666016 0.3943657 0.57723755
-0.16480719 -0.27796605 0.0005378001 -1.0461612 -0.9814754 0.78786874 -0.38717806 0.43197685
-0.4536771 -0.1340122 0.30737248 -0.34202892 -0.66752213 -0.2454128 -0.007532587 -0.040833242
-0.5405879 1.2234398 -0.16099666 0.2911236 0.60743296 -0.76069415 -0.14327228 0.21202484
0.4505983 0.24925849 -0.31313574 -0.18326901 -0.6033535 0.7418744 0.63226336 -0.2892075
-0.10989255 0.92895216 0.19828655 -0.012557786 -0.20885812 0.30141655 -0.0599854 0.026399687
0.012580824 -0.11398589 -0.7324693 0.24799682 -0.16184938 -0.6268705 0.09623802 0.022887995
0.48787734 -0.20926015 -0.02251481 -0.0067939544 0.27778897 0.05818145 0.24844907 -0.7217915
0.03243467 -0.8025847 0.69808984 -0.5733933 0.01139493 -0.12587167 -0.40252024 0.16865353
0.15450342 -0.03954641 0.24550518 -0.048375625 0.1378845 -0.48696163 -0.41652572 0.59782976
00000000: 7b9f 34bd 10a4 d13d 9a7c bcbe 595a 88be
00000010: 10a4 efbd cd69 693d 8360 1b3d 1218 6bbd
00000020: 58f5 2abe 30bb c83e 88c2 b3bd cea4 53bc
00000030: c1ba ffbd 648d 0d3d 49ea 313f ab24 a23e
00000040: 1c3d 213f 0d4c cabe afaf abbe 0d5a 8f3e
00000050: 00aa 94be 5575 99be 5f5f d83e bad1 863d
00000060: 6e8e ee3d 9cbb 173b 147b 68be 6240 203f
00000070: 87c5 a1be 160a 573e b4d5 b2be bc62 593e
00000080: b7fe e73e 9cb7 8e3d 9341 89bf f3d5 f8bd
00000090: e4e9 ed3c f82a cb3d 35ba 893e 9835 363f
000000a0: 8414 143f 5f7d f0be 6b61 aabe c332 2cbf
000000b0: ca8d 86bf 11ae db3e 52f3 b53e bd4a cbbe
000000c0: 68ef b9bc 10cd 34bc f804 3b3f 9eaf 75bd
000000d0: cdcf 4d3c 090a 2fbf 40d3 fb3b a97a 40bd
000000e0: 645b ed3e e279 683d 578f 9f3d b3f5 2bbd
000000f0: 4118 53bf 3754 90be 1192 54be f8e7 8d3e
00000100: 3d95 503e 84d2 40bf 2854 c2be 5c97 0e3f
00000110: e731 f13e 5bbb 2d3f 662f f8be a155 e2bd
00000120: 420b d43e d3b0 e8be 6fa0 0dbe e1a9 03be
00000130: 4b6d 57be e20d a23e 1cb9 babd d558 f2be
00000140: 0323 8c3d b97d 333e 2f9f 173e 6229 063e
00000150: e5d5 063e b4f6 ef3e db9d 33bf b85d 143f
00000160: 887f 223f 27b8 6d3d 9ad6 a03e e084 7abb
00000170: 942f aabf 7167 fbbe e782 fabe 5a3e 593f
00000180: e80a babe 0ab5 30bf a587 f43e 67d7 b63e
00000190: 58a6 83bf 2e00 023f 30bc 0cbf c056 0fbf
000001a0: 1fe7 b3bd ec09 473f bcaa 63bf 533c bdbc
000001b0: ab83 943e e7cd debe 12f3 c53e 6c45 0bbf
000001c0: 1b34 153f 8337 333d 826a 36bf d143 77be
000001d0: 2033 3abf e27b debe 69aa de3e 3177 0a3f
000001e0: 7bef c73e 0437 9a3e ef07 9fbe d624 2f3e
000001f0: 9db6 f13e 2b47 bb3e 5d1d 56bf de42 fb3e
00000200: 6780 863f e9c3 783e ed05 0dbf 3a66 233f
00000210: 6677 123f f1a5 013e 9afc bcbe 390b 6dbd
00000220: 1eee fa3e 783c c1be b9d8 35be 5872 863e
00000230: 8ef4 e8be e78e a83e 18c4 f93d dccd d7be
00000240: a3e2 3c3e dac6 30be 3d19 b43d 8259 d83d
00000250: a148 6bbe b461 1f3d 2d3c 0cbf 06b8 27be
00000260: f10e 313e 4e80 993d db07 423e 452f ff3d
00000270: 6fdc 2abe 3d7f a9be 405b d7be 9cc8 d33e
00000280: 4f78 bebe 8e50 01bf 1251 2f3e 2ace e7bd
00000290: 421b b1be 30c9 743c 94c9 1cbf 19f1 dbbd
000002a0: 1e42 92be ff05 c13e 1712 63bd 4eca ed3e
000002b0: d270 e73d ea74 35bf 0f50 b7be cf93 5f3e
000002c0: c3a4 7b3d 4d5c 073d 525d 083e cdaf eebd
000002d0: a2bb 0cbf 29fc 223f 4dea c93e d7c5 133f
000002e0: 37c3 28be 9151 8ebe 27fb 0c3a 9ce8 85bf
000002f0: f941 7bbf c4b1 493f 343c c6be 122c dd3e
00000300: 5d48 e8be 7f3a 09be ed5f 9d3e 6a1e afbe
00000310: bbe2 2abf 7e4d 7bbe ebd3 f6bb c240 27bd
00000320: f863 0abf ad99 9c3f 4fdc 24be 270e 953e
00000330: ba80 1b3f dabc 42bf f8b5 12be 0a1d 593e
00000340: d2b4 e63e 9e3d 7f3e 5453 a0be dfaa 3bbe
00000350: 6075 1abf 7beb 3d3f 03dc 213f 0113 94be
00000360: 580f e1bd cfcf 6d3f a10b 4b3e 2cbf 4dbc
00000370: e7de 55be 4553 9a3e 40b3 75bd 2844 d83c
00000380: cd1f 4e3c 6f71 e9bd 1c83 3bbf e1f2 7d3e
00000390: d8bb 25be 967a 20bf 7018 c53d 9b7f bb3c
000003a0: 0fcb f93e 4b48 56be fb70 b8bc d29f debb
000003b0: 5b3a 8e3e ac4f 6e3d 6f69 7e3e 54c7 38bf
000003c0: 37da 043d 3176 4dbf 04b6 323f e7c9 12bf
000003d0: cdb1 3a3c 81e4 00be 2217 cebe 83b3 2c3e
000003e0: 2536 1e3e 6bfb 21bd b665 7b3e 8525 46bd
000003f0: 9831 0d3e 0953 f9be dc42 d5be 5f0b 193f

lstm.bias_ih_l0 f4 [128]
-0.13709249 0.26330334 -0.023450151 -0.3589915 -0.13813095 -0.1730332 -0.545668 0.21290743
-0.09894111 -0.12634015 -0.023517746 -0.118915334 0.16187951 0.1827557 -0.31019315 -0.26641494
-0.10948747 0.10404326 -0.12939839 0.014799759 -0.07093071 -0.3729931 -0.1663757 0.099890895
-0.23351274 0.12474784 -0.5168392 -0.0361069 -0.20412251 -0.07480391 -0.3711138 0.097133346
-0.18027306 0.11186537 0.40777043 0.30652267 0.24890256 -0.071382284 0.16193649 0.20013276
0.3509094 0.005493273 -0.09330417 0.32904452 0.32018584 0.32063323 -0.12301881 0.5355431
0.22829781 0.25996283 0.058263276 0.1598515 0.558655 -0.17067648 0.31709763 -0.25814483
0.26684412 0.35031763 0.33808818 0.22763756 -0.175424 0.04426342 0.0034711754 -0.35498092
0.20729984 0.42172977 -0.15115824 0.17084472 0.14376779 -0.12974547 0.036670733 0.21732971
0.30256873 -0.30922845 0.31756377 -0.13458902 -0.24559371 0.37895468 -0.22160897 -0.1609073
-0.48091736 -0.22101976 0.18134405 -0.06250114 0.4144826 -0.071577944 -0.23174329 0.07845059
0.1980172 -0.013310379 0.124424174 -0.14365406 -0.09647142 -0.11063589 -0.052467722 0.016538551
0.092831574 -0.15536234 0.3099359 0.13065912 -0.09559258 -0.1711196 0.26408365 -0.1130172
0.11743401 0.31534925 0.06901025 0.023568906 -0.20318499 -0.041841876 -0.1770322 0.58510244
0.15987983 0.004685436 -0.016082894 0.09196382 0.12612927 -0.16079862 0.10818523 -0.0770408
-0.16000469 -0.07685898 0.35080618 -0.13413198 0.10153741 0.09713867 -0.03418754 0.07574606
00000000: f961 0cbe b2cf 863e 881a c0bc bccd b7be
00000010: 3372 0dbe 9d2f 31be e6b0 0bbf 6804 5a3e
00000020: a3a1 cabd 505f 01be 4aa8 c0bc e289 f3bd
00000030: bec3 253e 4f24 3b3e a3d1 9ebe 8a67 88be
00000040: f73a e0bd a214 d53d 0381 04be b07a 723c
00000050: 1f44 91bd f4f8 bebe 645e 2abe 9993 cc3d
00000060: f71d 6fbe cc7b ff3d 934f 04bf d4e4 13bd
00000070: 7e05 51be cb32 99bd a102 bebe d9ed c63d
00000080: 8099 38be ac19 e53d 49c7 d03e 8af0 9c3e
00000090: 50e0 7e3e e030 92bd aed2 253e 9aef 4c3e
000000a0: 66aa b33e ea00 b43b 4216 bfbd 8678 a83e
000000b0: 66ef a33e 0a2a a43e 49f1 fbbd 5a19 093f
000000c0: e7c6 693e d919 853e 79a5 6e3d 1db0 233e
000000d0: 0404 0f3f d1c5 2ebe 9f5a a23e 8f2b 84be
000000e0: cb9f 883e d55c b33e e519 ad3e d219 693e
000000f0: 59a2 33be 8f4d 353d a97c 633b 0fc0 b5be
00000100: 6946 543e f7ec d73e 3ac9 1abe ebf1 2e3e
00000110: dd37 133e ffdb 04be 0d34 163d ae8b 5e3e
00000120: 4aea 9a3e 3153 9ebe b897 a23e b4d1 09be
00000130: eb7c 7bbe 5906 c23e 76ed 62be e2c4 24be
00000140: cd3a f6be 0153 62be 41b2 393e 9900 80bd
00000150: 1037 d43e 7597 92bd 1d4e 6dbe b4aa a03d
00000160: 05c5 4a3e c713 5abc 1ad2 fe3d 0d1a 13be
00000170: cf92 c5bd 1295 e2bd 65e8 56bd db7b 873c
00000180: 7b1e be3d 4e17 1fbe ebaf 9e3e 81cb 053e
00000190: 0bc6 c3bd fa39 2fbe f935 873e 9075 e7bd
000001a0: 3e81 f03d 7575 a13e 3f55 8d3d 9413 c13c
000001b0: ba0f 50be 6362 2bbd ee47 35be 46c9 153f
000001c0: 8ab7 233e 4988 993b 46c0 83bc 8757 bc3d
000001d0: 0828 013e 65a8 24be 3890 dd3d 91c7 9dbd
000001e0: 45d8 23be 3e68 9dbd de9c b33e e559 09be
000001f0: d8f2 cf3d a4f0 c63d 3c08 0cbd c020 9b3d

lstm.bias_hh_l0 f4 [128]
-0.067504436 0.36586905 -0.17076623 -0.45758733 0.1298155 -0.40012974 -0.55010587 0.07303717
-0.10553639 0.054637726 -0.017891323 -0.33836538 0.19489327 0.14265324 -0.2900849 -0.44047818
0.17548026 -0.023593508 -0.07844035 -0.02791467 0.09256103 -0.42635047 -0.05133894 0.015498832
-0.23792934 0.23289236 -0.44871408 -0.17423886 -0.44195065 -0.100796245 -0.35102293 0.13330041
0.013599281 0.36745703 0.2000523 0.58353406 0.17264634 0.040006492 0.35866615 0.3431024
0.16238247 0.11102933 0.17874411 0.43985653 0.15442342 0.21782245 -0.09633768 0.35588813
0.06680356 0.10985298 0.1473243 0.2228774 0.29959127 -0.13984771 0.26484057 -0.09429815
-0.015865527 0.13453989 0.4409367 0.3319812 0.006680929 0.02189786 -0.08632314 -0.23267044
0.32400152 0.3661286 -0.026301714 -0.035301834 0.14650258 0.08012589 -0.027011808 0.23423143
0.31159738 -0.2397742 0.3264754 -0.08031934 -0.14853081 0.09977835 -0.117061496 -0.17068064
-0.27882314 0.004651514 0.3779355 -0.10693624 0.4356682 -0.06040444 -0.42408538 0.049374312
0.04712908 -0.3403918 -0.089441024 -0.023078538 0.20945558 -0.21701631 -0.1391376 0.08752874
0.07440092 -0.11446542 0.06242925 0.1951719 0.14471325 0.051695418 0.4771358 -0.20524897
0.26460123 0.35081396 0.03365275 -0.031444754 -0.119379275 -0.093900114 -0.092353456 0.27673498
0.23447047 0.12332806 0.061844956 0.023876334 -0.07395609 -0.02631677 0.20580232 -0.18942302
-0.029900497 0.11482941 0.5010726 0.14050037 -0.16697304 0.03490329 -0.030670486 0.059068482
00000000: c43f 8abd 3053 bb3e 58dd 2ebe e348 eabe
00000010: 5bee 043e cedd ccbe bdd3 0cbf 8394 953d
00000020: 7623 d8bd cfcb 5f3d d390 92bc 3a3e adbe
00000030: 1a92 473e b113 123e 0286 94be 5b86 e1be
00000040: 19b1 333e 2c47 c1bc 56a5 a0bd 4ead e4bc
00000050: a390 bd3d 9c4a dabe c848 52bd d0ee 7d3c
00000060: c0a3 73be 567b 6e3e dabd e5be ac6b 32be
00000070: 5b47 e2be 436e cebd 47b9 b3be e77f 083e
00000080: 85cf 5e3c 5423 bc3e 83da 4c3e 7d62 153f
00000090: 34ca 303e d9dd 233d 17a3 b73e 1eab af3e
000000a0: 9747 263e 5863 e33d b208 373e e034 e13e
000000b0: 2c21 1e3e d90c 5f3e b14c c5bd f836 b63e
000000c0: 4ed0 883d 99fa e03d 2edc 163e f939 643e
000000d0: 0764 993e 3d34 0fbe 2f99 873e 631f c1bd
000000e0: 6cf8 81bc d3c4 093e 75c2 e13e 71f9 a93e
000000f0: b2eb da3b 2463 b33c 30ca b0bd 2941 6ebe
00000100: 87e3 a53e 3575 bb3e b176 d7bc a898 10bd
00000110: c604 163e 0b19 a43d de47 ddbc 5dda 6f3e
00000120: b189 9f3e 5e87 75be c927 a73e 777e a4bd
00000130: 7618 18be 9758 cc3d f0bd efbd e8c6 2ebe
00000140: e8c1 8ebe ba6b 983b c380 c13e 6301 dbbd
00000150: e70f df3e a56a 77bd b821 d9be b83c 4a3d
00000160: 6c0a 413d d647 aebe db2c b7bd 340f bdbc
00000170: 867b 563e 8639 5ebe 167a 0ebe 4542 b33d
00000180: 825f 983d d96c eabd d0b5 7f3d 24db 473e
00000190: b62f 143e 93be 533d 254b f43e c92c 52be
000001a0: d079 873e e39d b33e 77d7 093d 37cc 00bd
000001b0: 1f7d f4bd b44e c0bd cf23 bdbd 35b0 8d3e
000001c0: 0719 703e 6c93 fc3d 2351 7d3d 4d98 c33c
000001d0: 4a76 97bd 4496 d7bc d8bd 523e 1cf8 41be
000001e0: e3f1 f4bc af2b eb3d 4b46 003f 54df 0f3e
000001f0: fbfa 2abe c1f6 0e3d ac40 fbbc cbf1 713d

end_layer.0.weight f4 [1, 256]
0.056894638 0.048026446 0.19893906 0.024500102 -0.0014168939 -0.045171387 0.07023988 0.12361179
-0.11959583 -0.04653563 0.2733481 -0.2176086 -0.30337402 0.01643316 -0.10258376 -0.15351288
0.1605961 0.139134 -0.039486464 -0.2579662 0.14703794 0.21382584 0.09294781 -0.34011182
-0.3744006 -0.15392362 -0.00069065235 0.029488847 -0.10247948 0.00644673 -0.364024 -0.23618822
-0.19293816 0.03825112 -0.047983337 -0.5109072 -0.018514771 -0.25845954 -0.65483403 -0.064762495
-0.35450554 -0.44935188 -0.058345385 0.03656934 0.13463587 -0.36265674 -0.33319968 0.011929895
-0.27606195 -0.04640174 -0.00028194473 0.12286436 -0.15222709 -0.3522523 -0.0010642994 0.035067942
-0.24182676 -0.18041427 -0.27959776 -0.05610637 -0.16749948 -0.22770268 -0.5411426 -0.16712166
0.0976524 -0.15564494 -0.024349311 -0.21156098 -0.06937615 -0.04835921 0.06411671 -0.15033275
-0.029975358 0.12217895 -0.16350402 0.15932028 -0.34407645 0.14269163 -0.2870849 0.028163929
-0.0036480196 -0.0041420017 -0.5497305 0.11521181 0.03855129 -0.11283843 -0.30005503 -0.11383698
-0.18752596 0.21072493 -0.10745361 -0.31233707 0.06921507 0.049502328 -0.3917535 -0.30187833
-0.16769454 -0.044508643 -0.2815566 -0.29660717 -0.015220375 0.059918035 -0.21634616 -0.042879004
-0.61234444 -0.11017287 -0.16572464 -0.41887587 -0.110101774 0.106937714 0.016166138 -0.016704988
-0.08280216 -0.20241661 0.16118962 -0.22360368 0.2187342 -0.28603396 -0.24950206 -0.09662342
-0.3506269 -0.2347232 0.08301584 0.086799376 -0.015126203 -0.28763667 -0.047476053 0.010003125
0.015709538 0.009133159 0.027175508 0.010402919 -0.27701268 0.11848837 -0.1904966 -0.09063487
0.11420149 -0.32553178 -0.18466596 -0.32725647 -0.015431292 0.03709353 0.29783782 0.05464909
-0.19540092 -0.3492811 -0.27553296 0.05103784 -0.009901329 0.0027848007 -0.29782346 -0.16738233
0.11090535 -0.0637452 0.12236631 -0.2543602 -0.13740268 -0.44204196 -0.022191042 -0.25193134
-0.024142107 -0.021888658 -0.13691083 0.31508166 -0.12270092 0.15747195 -0.13601537 -0.02660095
-0.39428738 0.075654395 -0.29334947 0.0045734616 -0.3978214 0.01404515 -0.14826334 -0.06124931
-0.18331786 -0.20276211 0.11220921 -0.36929086 -0.14933279 0.12367321 -0.05464356 -0.012146054
-0.30098766 -0.2809442 -0.17950864 -0.00093961856 -0.06912701 -0.4945309 0.25684 0.03836242
0.0979728 -0.33643374 -0.17830402 -0.41421017 -0.04227358 -0.08329766 -0.10060431 0.33933696
-0.041625556 -0.18719654 -0.2221058 0.11551116 -0.14298153 -0.08669167 -0.37793654 -0.24016924
-0.2988458 -0.26284876 0.36421028 -0.044130974 -0.27521113 -0.31515768 -0.1305683 0.28663105
-0.2271733 -0.23816255 -0.0066375136 -0.19300328 -0.05248479 -0.16552562 -0.14093092 0.12761194
-0.28084818 -0.34455895 -0.11614482 -0.023844615 -0.026659353 -0.2609253 -0.3905282 -0.13625143
-0.09194177 -0.04529293 -0.3058821 0.072978355 -0.2875259 -0.010785084 -0.17388073 -0.29241592
-0.019721625 -0.22583316 0.055816103 0.1744945 0.019546844 -0.046704173 -0.08289165 -0.25796035
-0.007313132 0.097776696 -0.53061336 -0.052544862 -0.003194166 -0.055607136 -0.26933128 0.23067227
00000000: 5a0a 693d 61b7 443d aeb6 4b3e 70b4 c83c
00000010: 12b7 b9ba a205 39bd edd9 8f3d 2e28 fd3d
00000020: a9ee f4bd 259c 3ebd 48f4 8b3e cad4 5ebe
00000030: d753 9bbe d69e 863c 6f17 d2bd 7b32 1dbe
00000040: 4e73 243e 2579 0e3e 8fbc 21bd 2514 84be
00000050: 1d91 163e 29f5 5a3e 6c5b be3d 2323 aebe
00000060: 6fb1 bfbe 279e 1dbe e50c 35ba 9892 f13c
00000070: c3e0 d1bd 173f d33b 5b61 babe 53db 71be
00000080: 9591 45be 35ad 1c3d 2d8a 44bd d0ca 02bf
00000090: 4aac 97bc cf54 84be 34a3 27bf 33a2 84bd
000000a0: c081 b5be 7311 e6be 92fb 6ebd bbc9 153d
000000b0: fcdd 093e 25ae b9be 2699 aabe 9b75 433c
000000c0: fe57 8dbe c00f 3ebd fbd1 93b9 4fa0 fb3d
000000d0: 6be1 1bbe 6a5a b4be f67f 8bba 67a3 0f3d
000000e0: 6fa1 77be 85be 38be 7027 8fbe cbcf 65bd
000000f0: fc84 2bbe e42a 69be 5288 0abf f121 2bbe
00000100: fbfd c73d 6361 1fbe 3578 c7bc 71a3 58be
00000110: 1515 8ebd 4f14 46bd 9f4f 833d d4f0 19be
00000120: e28e f5bc f538 fa3d 996d 27be db24 233e
00000130: ca2a b0be c11d 123e cbfc 92be 0ab8 e63c
00000140: 9d13 6fbb a1b9 87bb 23bb 0cbf 2bf4 eb3d
00000150: f5e7 1d3d d617 e7bd d0a0 99be 5d23 e9bd
00000160: ce06 40be 47c8 573e a310 dcbd a5ea 9fbe
00000170: a1c0 8d3d f4c2 4a3d ea93 c8be cc8f 9abe
00000180: 1eb8 2bbe b24e 36bd 3028 90be e5dc 97be
00000190: e15e 79bc 9d6c 753d d989 5dbe e5a1 2fbd
000001a0: 9bc2 1cbf 50a2 e1bd b8b3 29be e676 d6be
000001b0: 0a7d e1bd 2902 db3d d96e 843c e6d8 88bc
000001c0: 2e94 a9bd 4d46 4fbe e40e 253e 5df8 64be
000001d0: dcfb 5f3e 0b73 92be 787d 7fbe 80e2 c5bd
000001e0: 5e85 b3be 475b 70be 3504 aa3d dfc3 b13d
000001f0: e5d3 77bc 1d45 93be 4076 42bd 26e4 233c
00000200: 4ab1 803c 3fa3 153c 2c9f de3c 0171 2a3c
00000210: 9bd4 8dbe 08aa f23d 8a11 43be c69e b9bd
00000220: 79e2 e93d 1aac a6be 1319 3dbe 298e a7be
00000230: 88d3 7cbc 63ef 173d 337e 983e b9d7 5f3d
00000240: 2e17 48be f9d4 b2be a812 8dbe 0e0d 513d
00000250: 2f39 22bc 3481 363b 517c 98be 4666 2bbe
00000260: 5822 e33d d88c 82bd 309b fa3d 803b 82be
00000270: 4ab3 0cbe 5353 e2be fdc9 b5bc 25fd 80be
00000280: abc5 c5bc d84f b3bc 5a32 0cbe 6252 a13e
00000290: 9f4a fbbd 5440 213e 9d47 0bbe 3cea d9bc
000002a0: 09e0 c9be b1f0 9a3d e731 96be fadc 953b
000002b0: 3faf cbbe a11d 663c 58d2 17be 8ee0 7abd
000002c0: adb7 3bbe dfa0 4fbe f1cd e53d b113 bdbe
000002d0: b2ea 18be 6148 fd3d edd1 5fbd 3e00 47bc
000002e0: 0e1b 9abe ebd7 8fbe 1dd1 37be bc50 76ba
000002f0: 7692 8dbd 2733 fdbe 8880 833e ea21 1d3d
00000300: f7a5 c83d 0b41 acbe 5495 36be 5b13 d4be
00000310: 1027 2dbd f797 aabd a209 cebd 93bd ad3e
00000320: 8f7f 2abd 73b0 3fbe b46f 63be 1d91 ec3d
00000330: c069 12be 678b b1bd e680 c1be edee 75be
00000340: 5102 99be 1d94 86be c579 ba3e aec2 34bd
00000350: 79e8 8cbe 595c a1be b2b3 05be 4ec1 923e
00000360: 1ea0 68be e2e0 73be 807f d9bb a7a2 45be
00000370: 4bfa 56bd 8c7f 29be 3250 10be b4ac 023e
00000380: 55cb 8fbe 086a b0be 56dd edbd c855 c3bc
00000390: b764 dabc 0098 85be 50f3 c7be 7f85 0bbe
000003a0: f74b bcbd 1485 39bd 949c 9cbe ad75 953d
000003b0: 9836 93be ecb3 30bc ca0d 32be 8ab7 95be
000003c0: 3f8f a1bc cf40 67be 6d9f 643d b0ae 323e
000003d0: b420 a03c e04c 3fbd 19c3 a9bd 6113 84be
000003e0: ffa2 efbb 263f c83d 47d6 07bf 4839 57bd
000003f0: 3755 51bb 4fc4 63bd cae5 89be 5a35 6c3e
