models/5way-2shot_relation_network.pkl (torch, 209179 bytes, 7 tensors)

layers.0.weight f4 [32, 64]
0	0x3dc0bd58	0.094111145
1	0x3ee146ac	0.4399923
2	0x3b0b9670	0.0021299385
3	0xbd251054	-0.040298775
4	0xbe35f156	-0.17767844
5	0xbe85af99	-0.26110533
6	0x3cbd605f	0.023117242
7	0x3e811eb0	0.25218725
8	0xbeb817f5	-0.35955778
9	0xbe7979f9	-0.24362935
10	0x3e6a66a8	0.22890723
11	0xbdbabbbc	-0.09117839
12	0xbd8cc519	-0.06873531
13	0xbbdbce04	-0.0067079086
14	0x3def15ae	0.11674057
15	0xbbc2015d	-0.0059205727
16	0xbc80eeb1	-0.015738817
17	0x3d6d1766	0.057883643
18	0x3c15dc40	0.00914675
19	0x3c76c5cb	0.015061806
20	0x3d326c3f	0.043560263
21	0x3ec8945f	0.39175698
22	0x3e6619df	0.22470807
23	0xbd6ad720	-0.057334065
24	0x3d8ca326	0.068670556
25	0x3d3a01c2	0.045411833
26	0xbe1eb7d0	-0.15499806
27	0x3e19351a	0.14961663
28	0xbdae6473	-0.08515253
29	0x3c9eda63	0.019391244
30	0x3cdafeab	0.026732763
31	0x3e829cb5	0.25510183
32	0x3dc11073	0.094269656
33	0xbcfa871a	-0.030582
34	0xbdc85247	-0.09781318
35	0x3e292620	0.1651845
36	0xbde03159	-0.10946912
37	0xbe1d1fcc	-0.15344161
38	0x3dee6b2f	0.116415374
39	0x3d3b423a	0.045717455
40	0xbcb370b2	-0.021904323
41	0x3ce36058	0.027755901
42	0xbd9f0d57	-0.07766216
43	0x3dceeb18	0.10103434
44	0x3b5a84c9	0.0033343306
45	0x3e7abdc4	0.24486452
46	0x3cc8fcb6	0.024534564
47	0x3e35d771	0.17757966
48	0x3e30fb04	0.17283255
49	0x3dc8c98a	0.098040655
50	0xbec05b54	-0.37569678
51	0xbca46b6b	-0.020070752
52	0x3eaf033a	0.3418215
53	0xbc840a56	-0.01611821
54	0x3cfceaa5	0.030873606
55	0xbe9067a6	-0.28204077
56	0x3e06b207	0.1315385
57	0xbe15ba7f	-0.14621924
58	0x3d878d02	0.06618692
59	0xbc11ebb7	-0.008906296
60	0xbb28c4d5	-0.0025752087
61	0xbdb6e1da	-0.089297965
62	0xbc13176d	-0.008977753
63	0x3cb79dd9	0.022414135
64	0x3c5a0149	0.0133059705
65	0xbe58da85	-0.21177109
66	0xbd0d91f5	-0.034563024
67	0xbcead1f0	-0.02866456
68	0x3cd02321	0.025407376
69	0x3cd9df50	0.026595742
70	0xbe650f75	-0.22369178
71	0xbe199335	-0.14997561
72	0x3da6bcaf	0.08141457
73	0x3e50ed35	0.20402987
74	0xbd7390e7	-0.05946436
75	0xbcbbdf60	-0.022933662
76	0x3d932f48	0.071867526
77	0xbdcb576c	-0.09928784
78	0x3e530b51	0.20609786
79	0xbdcf6b05	-0.10127834
80	0x3d9f6dd2	0.077846184
81	0xbcf091fc	-0.029366486
82	0x3ca8c849	0.020603316
83	0x3d2a18ad	0.04152744
84	0xbe01fc1a	-0.12693825
85	0xbdf96aee	-0.12178598
86	0xbe152690	-0.14565492
87	0x3d8926ec	0.06696877
88	0x3c16113d	0.009159383
89	0x3e4780f8	0.19482791
90	0xbcd02346	-0.025407445
91	0x3c423fcb	0.01185603
92	0x3d0d2ef4	0.034468606
93	0xbe81be28	-0.2534039
94	0x3caf9d52	0.02143732
95	0xbd208458	-0.039188713
96	0x3dff0007	0.12451177
97	0x3e56b063	0.20965724
98	0xbdad2aea	-0.08455451
99	0xbdfa08d0	-0.12208712
100	0x3e4a37c5	0.19747837
101	0xbd4e5c5f	-0.05038106
102	0xbcdd3b4d	-0.027005816
103	0xbdb03d9d	-0.08605502
104	0x3c51ce30	0.012805507
105	0x3d3e0e34	0.046400264
106	0x3e3b9e31	0.18322064
107	0x3d78916d	0.060685564
108	0x3be0b3c4	0.006857367
109	0xbdd34081	-0.103150375
110	0x3df28697	0.11842077
111	0x3c213820	0.009840041
112	0x3da1c605	0.07899097
113	0x3e0dba85	0.13840683
114	0x3e640764	0.22268444
115	0xbd112ee5	-0.035445113
116	0xbeabc8b0	-0.3355155
117	0xbe34bbda	-0.17649785
118	0x3bc7cd1c	0.006097449
119	0x3db39ecc	0.087705225
120	0xbdb7597e	-0.08952616
121	0x3ca4c9e9	0.02011581
122	0x3d106ca2	0.03525985
123	0xbe1213dd	-0.1426539
124	0xbd2143a8	-0.039371163
125	0x3d311d19	0.04324064
126	0x38ec130e	0.00011256906
127	0xbe0af5e0	-0.13570356
128	0x3daef32f	0.08542477
129	0x3f021afe	0.50822437
130	0x3d16b990	0.03679806
131	0xbda6a3d9	-0.0813672
132	0xbe58b2a8	-0.21161902
133	0xbdb940bb	-0.090455495
134	0x3e0f4418	0.1399082
135	0x3e38faec	0.18064469
136	0xbe9465cd	-0.28983918
137	0xbe2d5c1c	-0.16929668
138	0x3ec75f3d	0.3893985
139	0xbd884336	-0.066534445
140	0x3c79f993	0.015257257
141	0xbd8f9b6a	-0.07012065
142	0x3d79d04b	0.06098966
143	0x3c8d18c3	0.017223721
144	0xbe1fa3b3	-0.1558979
145	0xbc6a0cac	-0.014285248
146	0x3db9d194	0.09073177
147	0xbce45e62	-0.027877036
148	0x3dc4de31	0.09612692
149	0x3eba2176	0.36353654
150	0x3e7681d9	0.2407297
151	0xbe0b216f	-0.13586973
152	0x3da7f3ca	0.08200796
153	0x3d1c53c0	0.038165808
154	0xbe111819	-0.14169349
155	0x3b4580af	0.0030136516
156	0xbe5e8024	-0.2172857
157	0xbe1737d5	-0.14767392
158	0x3df5c112	0.11999716
159	0x3e3b03c1	0.18263151
160	0xbdc86671	-0.09785164
161	0x3dc3b870	0.09556663
162	0xbd670ba0	-0.05640757
163	0x3e0fdb8f	0.14048599
164	0x3deb813d	0.114992596
165	0xbd88020d	-0.06641016
166	0x3c862bf3	0.016378378
167	0xbd4ef466	-0.050526045
168	0xbceb3a31	-0.028714271
169	0x3c6d5489	0.014485487
170	0xbdf2b3d7	-0.11850708
171	0xbe0eafcf	-0.13934253
172	0x3d85e83d	0.065384366
173	0x3e3ea90a	0.18619171
174	0x3c3b5d4e	0.01143582
175	0x3d5e1dcf	0.054227646
176	0xbb934916	-0.0044947965
177	0xbd2a827c	-0.041628346
178	0xbe197cea	-0.14989057
179	0x3df5d56c	0.120035976
180	0x3ea4f980	0.32221603
181	0xbd82a91b	-0.063799106
182	0x3da88ee2	0.08230378
183	0xbcf5da0a	-0.030011196
184	0x3cea260f	0.0285826
185	0xbd9a8652	-0.07545151
186	0x3c82f429	0.015985565
187	0x3d0aca67	0.033884432
188	0xbe1cf057	-0.15326057
189	0xbd2026e4	-0.03909959
190	0xbdb57ffe	-0.08862303
191	0xbb4ba42a	-0.0031073191
192	0xbd440fe4	-0.047866717
193	0xbe9410a8	-0.28918958
194	0xbdbf82e7	-0.093511395
195	0xbd5d8823	-0.05408491
196	0x3e41a81b	0.18911783
197	0xbcaa72e2	-0.020806734
198	0xbe9f3d2d	-0.3110136
199	0x3db51808	0.08842474
200	0x3d4ca09e	0.049957864
201	0x3da88902	0.08229257
202	0xbd15d528	-0.036580235
203	0xbc473789	-0.012159237
204	0x3e307e0c	0.17235583
205	0xbd056d12	-0.03257472
206	0xbb7128fb	-0.0036798108
207	0xbe3ec5a6	-0.18630084
208	0x3e028999	0.12747802
209	0x3df0065b	0.11719962
210	0x3d4353a1	0.047687177
211	0xbe26a0e6	-0.16272315
212	0x3d9052c6	0.07047038
213	0x3dfc9a37	0.12334102
214	0xbc12a4de	-0.00895044
215	0x3dd7d5f3	0.105388544
216	0xbe3cb915	-0.18429978
217	0x3d542078	0.051788777
218	0x3bb16008	0.005413059
219	0xbd6de626	-0.058080815
220	0x3da2ae70	0.079434276
221	0xbe37e334	-0.17957765
222	0x3d16d2f4	0.036822274
223	0xbdf6265e	-0.12019037
224	0xbc0dbece	-0.008651448
225	0x3db8cddc	0.090236396
226	0xbdfd4d31	-0.12368239
227	0x3de35f33	0.11102142
228	0x3d5ad8bc	0.05342935
229	0xbd1a93db	-0.037738662
230	0xbe90b9b3	-0.28266677
231	0xbd6d26f5	-0.05789848
232	0xbd6c93ba	-0.05775807
233	0xbcedcc13	-0.029027974
234	0x3e3447dd	0.17605539
235	0xbd9f070d	-0.07765017
236	0xbe07afde	-0.13250682
237	0xbe121c9b	-0.14268725
238	0x3d0dbe91	0.034605566
239	0xbe04ee1b	-0.12981455
240	0x3bf27e47	0.0074003073
241	0x3e84cc45	0.25937095
242	0x3cf98ceb	0.030462703
243	0xbe0d23db	-0.13783209
244	0xbe54ae9b	-0.20769732
245	0xbaac54f2	-0.0013147874
246	0xbbee61c4	-0.007274838
247	0x3dec9763	0.11552312
248	0x3d27ceea	0.040968813
249	0xbdf77cb1	-0.1208433
250	0x3d73e20e	0.059541754
251	0xbd4afd70	-0.049558103
252	0x3bd76701	0.0065735583
253	0x3d97071b	0.07374402
254	0x3d1d42ca	0.038393773
255	0xbd54cf9f	-0.051955815

layers.0.bias f4 [32]
0	0xbc513068	-0.012767889
1	0x3ce085cb	0.027407547
2	0x3d206f68	0.039168745
3	0xbcf65473	-0.030069565
4	0x3e29a402	0.1656647
5	0x3e11a798	0.14224088
6	0x3d59305a	0.053024627
7	0x3ded1679	0.11576552
8	0x3dd6f9a5	0.10496835
9	0xbd8f9027	-0.07009917
10	0x3db65567	0.08903008
11	0x3e110b98	0.14164579
12	0xbd1038af	-0.035210308
13	0x3ddfcab7	0.10927337
14	0x3d9ca55e	0.07648729
15	0xbb6d8f8d	-0.0036248893
16	0x3d2f8196	0.042848192
17	0xbd09b628	-0.033620983
18	0x3c3a73c0	0.011380136
19	0x3e519808	0.20468152
20	0x3d9eb797	0.07749861
21	0x3c8a68fd	0.016895765
22	0x3e2d476c	0.16921777
23	0xbc8af56c	-0.01696273
24	0x3c255e50	0.010093287
25	0x3d241268	0.040056616
26	0x3cc72efc	0.024314396
27	0xbdc01cb4	-0.09380475
28	0x3dabee38	0.08395046
29	0x3dde536c	0.10855755
30	0xbdc3d968	-0.09562951
31	0xbd78c600	-0.060735703

lstm.weight_ih_l0 f4 [256, 128]
0	0xbd8a8ec0	-0.06765509
1	0x3d9db224	0.07699993
2	0xbdde0c99	-0.108422466
3	0xbb35ce2a	-0.0027741292
4	0x3c58a859	0.013223731
5	0x3e5d37aa	0.21603265
6	0xbe5ba3e6	-0.21449241
7	0xbd97cf11	-0.07412542
8	0x3ea6ed4a	0.32602912
9	0xbddd34a5	-0.10801057
10	0x3e767ac6	0.24070272
11	0x3d06203a	0.032745577
12	0x3e9ead4c	0.3099159
13	0x3d01c81b	0.031684976
14	0xbe259182	-0.16168788
15	0x3df7ae40	0.120937824
16	0x3a24d905	0.0006288442
17	0xbe530906	-0.20608911
18	0x3d8c8586	0.06861405
19	0x3e53e342	0.2069216
20	0x3ec11185	0.3770868
21	0x3cc61b83	0.02418304
22	0xbf05dfe3	-0.5229475
23	0xbdabf634	-0.08396569
24	0xbd90a2c6	-0.070622966
25	0xbe753c36	-0.2394875
26	0x3d1ccf19	0.03828344
27	0xbe2d58bc	-0.1692838
28	0x3ab398b9	0.0013702131
29	0x3dc2f11f	0.095186464
30	0x3e87edee	0.26548713
31	0x3e2a0a7b	0.1660556
32	0xbecdc840	-0.4019184
33	0x3e4bc865	0.19900663
34	0xbe28e993	-0.16495351
35	0xbb567b0f	-0.0032727157
36	0x3ec3cddf	0.38243005
37	0xbd78e7c5	-0.060767908
38	0x3c995142	0.018715505
39	0x3cd8c62e	0.026461687
40	0xbd4ba35e	-0.049716346
41	0x3e83b2e8	0.25722432
42	0xbd97af39	-0.07406468
43	0xbeab11d0	-0.33412027
44	0x3e142762	0.14468148
45	0xbd9565c6	-0.07294802
46	0xbe66e0ce	-0.22546694
47	0x3e8abc4f	0.27096793
48	0xbd4ebf74	-0.050475553
49	0x3dbcc7de	0.09217809
50	0x3e1cd6f5	0.15316375
51	0xbe672bfe	-0.22575375
52	0x3ec5c1fc	0.3862456
53	0x3d4528b2	0.048134513
54	0xbe633999	-0.2218994
55	0x3c979ee1	0.018508377
56	0x3da1a662	0.07893063
57	0xbe097c4d	-0.13426323
58	0x3e092182	0.13391688
59	0x3dee8054	0.116455704
60	0x3eb5ad23	0.35483655
61	0x3e01d4f8	0.12678897
62	0x3d9ec142	0.07751705
63	0xbe1cf481	-0.15327646
64	0x3e97a3af	0.29617068
65	0xbd2c8896	-0.042122446
66	0x3e6a6e4e	0.2289364
67	0xbdbbe3e5	-0.09174327
68	0xbcc67457	-0.024225397
69	0x3eb23009	0.34802273
70	0x3e3eb34a	0.18623081
71	0xbdc4bccf	-0.09606325
72	0xbdd88c15	-0.105735935
73	0xbe5ed629	-0.21761383
74	0xbe57bd87	-0.21068393
75	0xbf06f31f	-0.52714723
76	0x3d5c4c1a	0.053783514
77	0xbd944bf0	-0.072410464
78	0xbe960d65	-0.29307094
79	0xbe0c0671	-0.13674332
80	0xbd4d2550	-0.050084412
81	0xbb7edc7c	-0.0038888743
82	0xbd84b358	-0.064795196
83	0xbea11042	-0.31457716
84	0xbe563e5f	-0.2092223
85	0xbd088a9d	-0.033335317
86	0xbdd84b17	-0.10561197
87	0xbc81725f	-0.015801607
88	0x3d81bcf7	0.0633487
89	0xbc0190be	-0.007908044
90	0xbe5b7189	-0.21430029
91	0xbe59c2f5	-0.21265776
92	0x3e553569	0.20821156
93	0x3db4c0c7	0.08825832
94	0x3eeb981d	0.4601449
95	0xbd2fd7fe	-0.042930596
96	0xbea229bc	-0.31672466
97	0x3e729c3a	0.23692408
98	0x3de9b3dc	0.114112586
99	0x3da50f73	0.08059587
100	0xbcc35798	-0.023845479
101	0x3e0a3476	0.13496575
102	0x3c4799e3	0.012182686
103	0x3e230deb	0.15923278
104	0xbbfeb592	-0.0077731097
105	0x3e76943c	0.24079984
106	0x3be30480	0.0069280267
107	0xbde21341	-0.11038829
108	0xbe371ce6	-0.17882118
109	0x3e83b875	0.25726667
110	0xbe368362	-0.17823556
111	0x3d75aa4c	0.05997686
112	0xbbcdd695	-0.0062816837
113	0x3d1b3135	0.037888724
114	0xbce82609	-0.02833845
115	0xbec96b9c	-0.39339912
116	0x3e5c85cc	0.21535414
117	0x3d1e8aa5	0.03870644
118	0x3e3de7e2	0.18545488
119	0x3dfdc9fb	0.1239204
120	0xbe2755f3	-0.16341381
121	0xbdfeeca9	-0.12447483
122	0xbe8c360c	-0.27384984
123	0xbc849378	-0.0161836
124	0x3e7535a9	0.23946251
125	0x3df21976	0.118212625
126	0x38531c61	5.033275e-05
127	0xbee0128d	-0.43764153
128	0x3e740f53	0.2383397
129	0xbdd706cf	-0.104993455
130	0x3dd9cea2	0.10635115
131	0x3de8abe2	0.11360909
132	0x3cd4be22	0.025969569
133	0xbcc12b91	-0.023580344
134	0x3dc4ae4f	0.09603559
135	0xbc549e52	-0.0129772
136	0x3c3a0db6	0.011355808
137	0x3e1cf948	0.15329468
138	0x3d0ae55b	0.033910137
139	0x3d55484f	0.052070912
140	0x3cb7177b	0.022350064
141	0xbb8fdc73	-0.0043902933
142	0xbe24191e	-0.16025206
143	0x3bfb631b	0.0076717264
144	0x3d233f88	0.03985551
145	0x3e28f451	0.1649945
146	0x3e2bc0ab	0.16772716
147	0x3e3be875	0.18350394
148	0xbdeeb5a3	-0.11655738
149	0xbd73ed72	-0.059552617
150	0xbe38595f	-0.18002842
151	0x3d32fc64	0.04369773
152	0x3d1a5a52	0.037683792
153	0x3d341b29	0.043971214
154	0xbc34f943	-0.011045757
155	0xbc615a11	-0.013754384
156	0x3e0f1c04	0.13975531
157	0xbdc87e7b	-0.09789749
158	0xbc069549	-0.008214303
159	0xbe028611	-0.12746455
160	0xbe8a081f	-0.2695932
161	0x3e9dfb7f	0.3085594
162	0xbd81700d	-0.063202
163	0x3e417088	0.18890584
164	0x3d271a80	0.040796757
165	0xbbcca316	-0.0062450273
166	0x3e256a3b	0.16153805
167	0xbd586f25	-0.05284037
168	0xbda01ffb	-0.078186
169	0x3db4c990	0.088275075
170	0x3daa35b5	0.08311025
171	0xbeb95ed1	-0.36205152
172	0xbe20a425	-0.15687616
173	0x3d7a5d95	0.061124403
174	0x3e08aaa6	0.13346347
175	0x3cd7b797	0.02633266
176	0x3d14fe1f	0.03637516
177	0xbaabced9	-0.001310791
178	0x3d9357e9	0.07194502
179	0xbd5cda78	-0.053919286
180	0x3e3ba424	0.18324333
181	0x3e96009e	0.29297346
182	0x3cccdd5a	0.025007892
183	0x3e09eb3b	0.1346864
184	0xbdb2b332	-0.08725585
185	0x3b58c6d0	0.0033077486
186	0x3df5d549	0.120035715
187	0xbe0a5666	-0.13509521
188	0xbd73419a	-0.059388734
189	0x3e4de416	0.20106539
190	0xbdfe1a8e	-0.12407409
191	0xbe4c15f1	-0.19930245
192	0xbe289d65	-0.16466291
193	0xbd92c092	-0.07165636
194	0xbe0b55f6	-0.1360701
195	0x3d405bb2	0.046962447
196	0x3e5fc74c	0.2185337
197	0xbe2f7bd4	-0.1713708
198	0xbd6b8f2f	-0.057509597
199	0xbe81b961	-0.25336745
200	0x3b808ef1	0.00392329
201	0x3e334746	0.17507657
202	0xbdb284b0	-0.087167144
203	0x3d95d485	0.073159255
204	0x3e4d9c86	0.2007924
205	0x3d54bf63	0.051940333
206	0x3ca9950d	0.020700956
207	0x3db99be1	0.09062935
208	0xbe47523b	-0.19464962
209	0x3cc2e99b	0.023793032
210	0xbdb00c18	-0.08596057
211	0xbae60563	-0.0017549213
212	0x3e873695	0.2640883
213	0xbe712557	-0.235494
214	0xbbd1bf9d	-0.006401016
215	0x3e8b06d3	0.27153644
216	0x3cf6c20d	0.030121827
217	0x3d9a41f3	0.0753211
218	0x3d16a27a	0.036776043
219	0x3e6c0428	0.2304846
220	0xbe60834a	-0.21925083
221	0xbddb4d81	-0.10708142
222	0xbe3c8321	-0.18409397
223	0xbdf73068	-0.1206978
224	0xbd2797c2	-0.040916212
225	0xbdefcca6	-0.117089555
226	0x3dfa58df	0.12223982
227	0x3e0bc271	0.13648392
228	0x3d1a76d1	0.03771097
229	0x3bc1e349	0.005916987
230	0xbe486821	-0.19570972
231	0x3dd009b5	0.101581015
232	0x3de03da2	0.109492555
233	0xbdab84ad	-0.08374915
234	0x3c0260f6	0.007957688
235	0x3e003276	0.1251925
236	0x3c6df076	0.014522662
237	0xbe4ceaba	-0.20011416
238	0x3dfa27bb	0.12214609
239	0x3c9145c0	0.017733455
240	0xbea6116e	-0.32435173
241	0x3ea8f6e7	0.33000872
242	0xbe634467	-0.22194062
243	0x3ddb9def	0.10723483
244	0x3d8f45c0	0.06995726
245	0x3dc33bfe	0.09532927
246	0xbd672d19	-0.056439493
247	0x3de6e110	0.11273396
248	0xbdfc3a83	-0.12315848
249	0x3d8d94c0	0.069131374
250	0xbcc7e7f5	-0.024402598
251	0xbdce693f	-0.10078668
252	0xbe0a629f	-0.13514183
253	0x3d8c77d7	0.06858795
254	0xbe13317b	-0.14374344
255	0x3e085021	0.13311817

lstm.weight_hh_l0 f4 [256, 64]
0	0x3d98991a	0.07451077
1	0xbd6f4906	-0.05841925
2	0x3e3e2fa5	0.18572862
3	0xbddfa793	-0.10920634
4	0xbd50b894	-0.050957277
5	0x3df91553	0.121622704
6	0x3d825d4d	0.06365452
7	0xbe6942e7	-0.22779427
8	0xbda0a6c8	-0.07844311
9	0xbef51e90	-0.4787488
10	0xbd9fe2da	-0.078069404
11	0x3da6f65b	0.08152457
12	0xbd045228	-0.032304913
13	0xbe575e66	-0.21032104
14	0x3daa4812	0.083145276
15	0x3d71881a	0.058967687
16	0x3b522824	0.0032067383
17	0x3c0aab7d	0.008463738
18	0x3da28960	0.079363585
19	0x3d9e7121	0.077364214
20	0xbcfe5feb	-0.031051597
21	0x3d75a6a7	0.059973385
22	0x3e885e55	0.2663447
23	0x3d9dd475	0.077065386
24	0xbe024f49	-0.12725557
25	0x3d0aeda1	0.033918027
26	0x3dbc2178	0.09186071
27	0x3cac793f	0.021053908
28	0x3c27d5bc	0.010243829
29	0xbdbf1aae	-0.093312606
30	0x3dbdb813	0.09263625
31	0xbc6bc1e7	-0.014389492
32	0x3dacf1c9	0.08444554
33	0x3d4cd767	0.05001011
34	0xbf0a1b4a	-0.5394789
35	0x3e437c80	0.19090462
36	0xbd02f85d	-0.03197514
37	0xbda72fe7	-0.081634335
38	0x3ce9739a	0.028497506
39	0xbdbd24a0	-0.09235501
40	0x3e27cd0f	0.16386817
41	0xbdf57b93	-0.119864605
42	0x3e717745	0.23580654
43	0xbce65f42	-0.028121594
44	0x3e190ad3	0.14945535
45	0x3d718dc1	0.058973078
46	0x3d7138ee	0.058892183
47	0xbb84acc6	-0.0040489165
48	0xbda32041	-0.07965136
49	0x3d02731b	0.031848054
50	0x3e1451af	0.14484285
51	0xbc87aa2e	-0.01656064
52	0xbd48dcf3	-0.04903884
53	0x3dcc511f	0.0997641
54	0x3d76af98	0.060226053
55	0x3eaaaa24	0.33332932
56	0xbb80a084	-0.003925385
57	0xbc582c55	-0.013194163
58	0x3d9a46c2	0.07533027
59	0xbd7d06a0	-0.061773896
60	0xbd85b35b	-0.0652835
61	0xba3c711b	-0.0007188485
62	0x3e319114	0.17340499
63	0xbe0719de	-0.13193461
64	0x3e239a38	0.15976799
65	0x3dfe0e33	0.12405052
66	0x3ac8a980	0.0015309304
67	0x3f28d995	0.65957004
68	0xbedda029	-0.43286255
69	0x3e1c111d	0.15240903
70	0xbe6a39e6	-0.22873649
71	0xbe8c0e8d	-0.2735485
72	0x3e5daf10	0.21648812
73	0x3e0e2884	0.13882643
74	0xbda7d225	-0.08194379
75	0xbe92aceb	-0.2864755
76	0x3df7c5d0	0.120982766
77	0x3e153171	0.14569642
78	0x3e2b3fc7	0.16723548
79	0x3ef079ed	0.46968022
80	0x3e4e2ac6	0.20133504
81	0xbe11c6b0	-0.1423595
82	0xbe6c48d9	-0.23074664
83	0xbe630411	-0.2216952
84	0xbd3c10c5	-0.04591443
85	0xbe5b1106	-0.21393213
86	0xbe9dbf2c	-0.30809915
87	0x3f53bedd	0.8271311
88	0xbdce7687	-0.10081201
89	0x3dcda4a6	0.1004117
90	0x3e7cb2e1	0.24677612
91	0x3e5623e5	0.2091213
92	0x3ea8ff54	0.330073
93	0xbe0c9410	-0.13728356
94	0x3ebb8a69	0.36629036
95	0xbe8dfef3	-0.27733573
96	0xbe1c1a44	-0.15244395
97	0xbd7476a8	-0.059683472
98	0xbeeca8b2	-0.46222454
99	0xbf26e811	-0.65197855
100	0x3ede2a92	0.43391854
101	0x3dbc495e	0.09193681
102	0x3dbfedfa	0.09371562
103	0x3e3d06ed	0.18459673
104	0x3e9d2f03	0.3069993
105	0xbbca0f80	-0.0061663985
106	0x3e9ac188	0.30225778
107	0xbe6ff7d0	-0.23434377
108	0x3e418310	0.18897653
109	0xbe86d483	-0.2633401
110	0xbe55f7dc	-0.20895332
111	0xbc549b4c	-0.012976479
112	0xbe5e2535	-0.21693881
113	0xbec9809b	-0.3935593
114	0x3d4c6c05	0.049907703
115	0xbeaec326	-0.3413326
116	0xbe251d20	-0.16124392
117	0xbd05dc1f	-0.032680627
118	0x3e2d18d8	0.16904008
119	0xbe704642	-0.23464301
120	0xbe9f67bf	-0.3113384
121	0x3e1625c8	0.1466285
122	0x3ec16298	0.37770534
123	0xbebc7538	-0.3680818
124	0xbe349710	-0.17635751
125	0x3dd5e42e	0.104439124
126	0x3e829bb9	0.25509432
127	0xbc1b6e29	-0.009486713
128	0x3db2d4cb	0.08731993
129	0x3d1cc08c	0.038269565
130	0xbce814a6	-0.028330158
131	0x3d76a51b	0.06021605
132	0x3eb8ec3c	0.36117733
133	0xbef8c1ab	-0.48585257
134	0xbeb11826	-0.34588736
135	0x3e9bc44c	0.304232
136	0x3e1a596a	0.15073171
137	0x3dd76461	0.10517193
138	0xbea860bf	-0.3288631
139	0x3d18fc24	0.037349835
140	0xbd0f9ff5	-0.035064656
141	0x3d2e99a0	0.042626977
142	0xbda86967	-0.08223229
143	0x3e3a51e4	0.18195301
144	0xbe74a4c2	-0.23890975
145	0xbe8e7593	-0.27824077
146	0xbe8e5ed8	-0.27806735
147	0xbe57bdd3	-0.21068506
148	0xbe753aa5	-0.23948152
149	0x3e73629a	0.23768082
150	0x3e881611	0.26579335
151	0xbe83e7f5	-0.25762907
152	0xbd8aab2f	-0.06770932
153	0x3d8ee129	0.0697654
154	0x3e11d35f	0.14240788
155	0xbde1b423	-0.110206865
156	0x3e90550f	0.28189895
157	0x3decee1b	0.115688525
158	0x3d5966ff	0.05307674
159	0x3e3ec8dd	0.18631311
160	0xbd9cb3eb	-0.07651504
161	0x3deff49a	0.11716576
162	0x3e58f1f7	0.21186052
163	0xbf0a75c6	-0.5408596
164	0x3e021cf2	0.12706354
165	0x3e66e86a	0.22549596
166	0xbe366430	-0.17811656
167	0xbe8cb513	-0.274819
168	0xbe321b44	-0.17393214
169	0xbeb4d158	-0.35315967
170	0xbd4137a0	-0.04717219
171	0x3ddf85c0	0.10914183
172	0x3e4a000c	0.1972658
173	0xbae8cf5c	-0.0017761993
174	0xbd3234cc	-0.043507382
175	0x3dc2966b	0.09501346
176	0xbd298959	-0.04139075
177	0x3cd59db8	0.026076183
178	0xbea86485	-0.3288919
179	0xbd45f150	-0.048325837
180	0x3d485f8f	0.048919257
181	0x3ebe63ec	0.3718561
182	0xbcb1a758	-0.021686241
183	0xbdb9ba9a	-0.090687945
184	0x3d3d6b0e	0.046244673
185	0xbd0b731d	-0.034045327
186	0x3e70ad6b	0.23503654
187	0xbe6ede2a	-0.23326936
188	0xbe7e27e1	-0.248199
189	0x3dbbc52a	0.091684654
190	0xbe0b4c61	-0.13603355
191	0xbe51d579	-0.2049159
192	0x3e3bdd3f	0.18346117
193	0x3e86fb88	0.26363778
194	0x3e2e7884	0.1703816
195	0xbe8b7a17	-0.27241585
196	0x3e512446	0.20423993
197	0xbdfbe6cb	-0.1229988
198	0x3c8eebac	0.017446361
199	0xbe4e3084	-0.20135695
200	0xbe2f0f1e	-0.1709561
201	0xbd8c07d8	-0.068374336
202	0x3d7dc9a0	0.061959863
203	0x3e2f0425	0.17091425
204	0xbed33844	-0.41253865
205	0x3d3d2f4a	0.046187676
206	0xbdb82788	-0.08991915
207	0x3e251b5f	0.16123722
208	0xbb95eb58	-0.0045751743
209	0x3d2413f9	0.04005811
210	0xbe5ca31d	-0.21546598
211	0xbe6f2669	-0.23354496
212	0xbdc2d5db	-0.09513446
213	0x3d85090e	0.06495868
214	0xbe608841	-0.21926977
215	0xbe092092	-0.13391331
216	0xbb8dc6e2	-0.004326687
217	0xbd0711a4	-0.032975808
218	0xbd8a5998	-0.0675537
219	0xbda21568	-0.07914239
220	0x3dbaa5d9	0.09113664
221	0x3b936134	0.0044976715
222	0xbd18ad8f	-0.037274893
223	0x3ebf4375	0.37356153
224	0x3d870be1	0.065940626
225	0x3e6b433c	0.22974867
226	0x3d3ef302	0.04661847
227	0xbe222577	-0.15834604
228	0xbddbcb3a	-0.10732122
229	0x3c992a44	0.018696912
230	0xbe5b4416	-0.21412691
231	0xbcf9dc44	-0.030500539
232	0xbdec10ff	-0.11526679
233	0xbea87ce0	-0.32907772
234	0x3d52132f	0.051287826
235	0x3e0fc80c	0.14041156
236	0xbd49c0bc	-0.04925607
237	0x3e82ecac	0.2557119
238	0xbe6c6b24	-0.23087746
239	0xbe21cc6f	-0.15800641
240	0x3e93daf7	0.28877994
241	0x3cfc92ff	0.030831812
242	0xbd61d700	-0.05513668
243	0x3e528ba0	0.20561075
244	0xbe8d7cdc	-0.27634323
245	0xbebb4bac	-0.3658117
246	0x3e4de390	0.2010634
247	0x3ed0e888	0.40802407
248	0xbda13a9f	-0.07872509
249	0x3c75add7	0.01499506
250	0x3ccddd59	0.02512996
251	0x3da738ed	0.081651546
252	0x3dd91237	0.10599177
253	0x3dfb2c79	0.12264342
254	0xbe152733	-0.14565735
255	0x3d3e2572	0.04642243

lstm.bias_ih_l0 f4 [256]
0	0x3dd4207b	0.10357758
1	0xbea31c72	-0.3185764
2	0xbdf3cd83	-0.119044326
3	0x3c9b25c1	0.0189389
4	0xbe0c79d7	-0.13718353
5	0x3d87acf1	0.06624783
6	0x3cc81425	0.024423668
7	0x3dddc391	0.10828317
8	0xbe8309bf	-0.25593373
9	0xbe91cce4	-0.28476632
10	0xbca0654d	-0.019579554
11	0x3dca29ef	0.098712794
12	0xbdbebd3a	-0.09313436
13	0x3e7054b6	0.23469815
14	0xbd15dbb4	-0.03658648
15	0x3e85d73b	0.2614077
16	0x3dff55c8	0.12467533
17	0xbe48056c	-0.19533318
18	0x3d6bb2b4	0.05754347
19	0x3e845280	0.25844193
20	0xbdc1e993	-0.09468379
21	0xbe3f1a54	-0.18662387
22	0xbe1918f4	-0.14950925
23	0xbe54c7e1	-0.20779373
24	0x3bc6f562	0.0060717324
25	0xbdea6970	-0.11445892
26	0xbd01c44a	-0.031681336
27	0x3dd10f59	0.102080055
28	0x3d9473dc	0.07248661
29	0x3e429bc9	0.1900474
30	0xbd1b6d6a	-0.037946142
31	0x3d601e24	0.054716244
32	0xbe05416d	-0.13013239
33	0xbd8a9020	-0.06765771
34	0xbe328478	-0.17433345
35	0xbcfcb8e9	-0.03084989
36	0x3d0ebdfd	0.034849156
37	0xbe175688	-0.14779103
38	0x3dcae3cd	0.09906731
39	0xbe2656b9	-0.1624402
40	0x3db1201b	0.08648702
41	0xbddfc95f	-0.1092708
42	0x3dcd8a54	0.100361496
43	0xbd4e7eaf	-0.050413784
44	0x3d54f51f	0.05199158
45	0xbd7f8a00	-0.062387466
46	0xbd809cb5	-0.062798895
47	0x3da148c3	0.07875206
48	0x3d5d420d	0.05401807
49	0xbe087170	-0.13324523
50	0x3d00ee3a	0.03147719
51	0xbd75578b	-0.05989794
52	0xbea32199	-0.3186157
53	0xbd3cbb63	-0.046077143
54	0x3d80843f	0.06275224
55	0xbd2bb2b6	-0.04191848
56	0xbd03ed8f	-0.032208975
57	0x3ba1c70c	0.0049370583
58	0x3db96cce	0.09053956
59	0xbc7bee20	-0.015376598
60	0xbe016d8d	-0.12639447
61	0x3cd87faf	0.026428072
62	0xbca75ab0	-0.020428985
63	0x3da30a63	0.079609655
64	0x3e8deddd	0.27720538
65	0x3da2b459	0.07944555
66	0xbe1e4840	-0.15457249
67	0xbdee8edb	-0.11648341
68	0x3d0c2b1b	0.034220796
69	0x3e3e4214	0.18579894
70	0x3dedbb60	0.116080046
71	0x3db023fa	0.08600612
72	0x3e46b65b	0.194055
73	0xbcfcb7fa	-0.030849446
74	0xbafb9907	-0.0019195386
75	0x3da81dfc	0.08208844
76	0xbcb3f336	-0.021966558
77	0x3e5cd4bc	0.21565527
78	0x3e064ddd	0.1311564
79	0x3dc66950	0.096880555
80	0x3e1214a0	0.1426568
81	0x3dde3db4	0.10851613
82	0x3e461c85	0.19346817
83	0x3d314cb5	0.043286044
84	0xbe2fe4cf	-0.17177127
85	0x3e2f9c84	0.1714955
86	0x3cdde9cd	0.027089024
87	0xbe321696	-0.17391428
88	0x3e16c590	0.14723802
89	0x3e749823	0.2388616
90	0x3e8ab375	0.2709004
91	0x3e29922c	0.16559666
92	0xbdae6ce9	-0.08516867
93	0xbd498f46	-0.0492089
94	0x3da39aed	0.07988534
95	0x3e783ac5	0.24241169
96	0x3dce9b1f	0.10088181
97	0x3d22cd4b	0.039746564
98	0x3e39fb52	0.18162277
99	0x3cc14947	0.023594512
100	0x3dfa8243	0.12231877
101	0x3db12f20	0.086515665
102	0x3e60dd73	0.21959476
103	0x3e7423cf	0.23841785
104	0xbd07867c	-0.03308724
105	0x3dac664c	0.08417949
106	0x3e7d15b6	0.24715313
107	0x3e0331b9	0.12811936
108	0x3e6897b6	0.22714123
109	0x3e11b9f1	0.14231087
110	0x3e221b99	0.1583084
111	0x3e7ca85f	0.24673603
112	0xbb8b254f	-0.004246391
113	0x3e3379da	0.17526951
114	0x3e0d7182	0.13812831
115	0x3e74c7b0	0.239043
116	0x3cb9ac45	0.022665152
117	0x3bda52ee	0.006662718
118	0x3d865f88	0.0656119
119	0xbd3fce85	-0.04682781
120	0xbd791eab	-0.060820263
121	0x3d9156c6	0.07096629
122	0x3e585f43	0.2113009
123	0xbd5cd12e	-0.053910427
124	0xbd9c078f	-0.07618629
125	0x3e5360b7	0.20642363
126	0xbd000239	-0.03125212
127	0x3e151e60	0.14562368
128	0xbd43353c	-0.04765819
129	0x3d21d460	0.039509177
130	0x3ce6b966	0.028164577
131	0xbe001744	-0.12508875
132	0xb9507484	-0.00019879831
133	0x3de481b0	0.111575484
134	0x3d687e14	0.056760862
135	0xbe0659af	-0.13120149
136	0xbcf5bd1c	-0.029997401
137	0x3dd050e9	0.101716824
138	0xbd646307	-0.055758502
139	0x3bcc0f0f	0.006227381
140	0xbd1af87b	-0.037834626
141	0xbd57564d	-0.052572537
142	0x3d71e295	0.059053976
143	0xbe211576	-0.15730843
144	0x3c90c407	0.017671598
145	0xbd9e0880	-0.07716465
146	0xbd2677e4	-0.04064168
147	0x3e242b52	0.1603215
148	0x3dd7cf96	0.10537641
149	0xbd5e2cbf	-0.054241892
150	0xbdcafcf1	-0.09911526
151	0xbd4669de	-0.048440807
152	0xbb53df19	-0.0032329021
153	0xbb8f3643	-0.004370482
154	0x3c3cbe36	0.011519959
155	0x3df1d30f	0.11807834
156	0xbe85745e	-0.26065344
157	0xbdd25630	-0.10270345
158	0xbd73e528	-0.059544712
159	0x3e7018c6	0.2344695
160	0xbdcca3ab	-0.09992155
161	0x3dc485bb	0.095958196
162	0xbd80e729	-0.0629409
163	0x3e425721	0.1897855
164	0xbd5e751e	-0.05431091
165	0xbd16050e	-0.036625914
166	0x3d73d1b8	0.059526175
167	0xbdc9c0c4	-0.0985122
168	0x3d95b993	0.07310786
169	0xbbb09cd3	-0.0053897887
170	0xbc7cd51c	-0.015431669
171	0xbd21628a	-0.039400615
172	0xbbd9b4a0	-0.0066438466
173	0x3da40e7c	0.08010575
174	0xbd4e8113	-0.050416064
175	0x3cd0d386	0.025491487
176	0xbe2606c9	-0.16213526
177	0x3d77db48	0.060511857
178	0x3dce24ff	0.1006565
179	0xbc8c65ca	-0.01713838
180	0xbe1f8416	-0.1557773
181	0xbd9c2538	-0.076242864
182	0xbe2ec2b9	-0.17066468
183	0x3c8f656c	0.017504416
184	0x3dfddd5f	0.12395739
185	0x3c3f8ae9	0.011690834
186	0xbd852376	-0.06500904
187	0xbd9649d5	-0.07338301
188	0x3dda10f4	0.10647765
189	0x3df69b75	0.1204137
190	0xbd9da378	-0.07697195
191	0xbd5ac9e7	-0.053415205
192	0x3af9e5b1	0.0019065646
193	0x3d760f1a	0.060072996
194	0x3dd12119	0.10211391
195	0x3da723f7	0.081611566
196	0x3ddce448	0.10785729
197	0xbbed784c	-0.0072470065
198	0xbce5dfbf	-0.028060792
199	0xbd057e89	-0.032591376
200	0x3d6c3ecc	0.057677075
201	0x3e26b513	0.16280012
202	0xbd8fbf6f	-0.07018935
203	0xbd110c8d	-0.03541236
204	0x3d273a89	0.040827308
205	0x3c96ae66	0.018393707
206	0x3e78a0ec	0.24280137
207	0x3bffcdab	0.0078065
208	0xbdd6344f	-0.10459196
209	0xbd623037	-0.055221763
210	0x3d1a3896	0.03765162
211	0xbcca1bc9	-0.024671452
212	0xbc852801	-0.016254427
213	0xbd8a6e45	-0.067593135
214	0xbcca7e95	-0.024718562
215	0xbcbea94e	-0.02327409
216	0x3e16e9ff	0.147377
217	0x3dae9b1a	0.08525677
218	0xbd158e0b	-0.036512416
219	0xbd5586c8	-0.05213049
220	0xbd8cbb4a	-0.0687166
221	0x3d5ff369	0.054675493
222	0x3dafc6b1	0.08582819
223	0xbc38c79f	-0.011278062
224	0x3d68f615	0.056875307
225	0xbd92765b	-0.07151481
226	0x3e1280b9	0.14306916
227	0xbd1b1add	-0.037867416
228	0xbdcc6157	-0.099795036
229	0xbd4e33a6	-0.050342225
230	0xbdd77c5c	-0.105217665
231	0xbd526544	-0.051366106
232	0x3e2f81b7	0.17139326
233	0x3cff7b7b	0.03118681
234	0x3d66767c	0.05626534
235	0xbcee9102	-0.02912188
236	0x3d93a726	0.072096154
237	0xbe15969a	-0.14608231
238	0xbdbc3308	-0.09189421
239	0xbc30d05b	-0.010791863
240	0xbd7489df	-0.059701797
241	0xbd81a6e2	-0.063306585
242	0x3e10f795	0.14156945
243	0xbdc5fbb6	-0.09667151
244	0x3e60cec5	0.21953876
245	0xbc9d815b	-0.01922672
246	0x3dcbd191	0.09952081
247	0xbc854463	-0.01626796
248	0x3ddb6180	0.10711956
249	0x3d4659c3	0.048425447
250	0xbdd048fb	-0.1017017
251	0xbe7cfab3	-0.24705009
252	0x3dd56138	0.10418934
253	0x3d36f184	0.04466392
254	0xbe19ed39	-0.150319
255	0xbdd59431	-0.10428656

lstm.bias_hh_l0 f4 [256]
0	0x3c320dd4	0.010867555
1	0xbe1c45cb	-0.15260999
2	0xbe0970ef	-0.13421987
3	0x3c8ae23a	0.016953576
4	0x3d592c30	0.053020656
5	0x3e0f8129	0.14014114
6	0xbdfe9a07	-0.12431722
7	0x3e3e1d3c	0.1856584
8	0xbe16d267	-0.147287
9	0xbe884709	-0.26616696
10	0xbc55c099	-0.013046407
11	0x3d98efff	0.074676506
12	0xbb0427bb	-0.0020165283
13	0x3d3aa94e	0.045571618
14	0x3daad5bd	0.083415486
15	0x3e4dfe44	0.20116526
16	0x3c2b2f9c	0.010448363
17	0xbda9b62e	-0.08286701
18	0x3dd4a108	0.10382277
19	0x3e91ec54	0.28500617
20	0xbd32a70e	-0.043616347
21	0xbd8a1fad	-0.06744323
22	0xbd87501e	-0.06607078
23	0xbe1069ce	-0.14102861
24	0x3dec2f7c	0.115324944
25	0xbc66cb1d	-0.014086512
26	0x3e0e8cef	0.1392095
27	0x3da3cbe0	0.079978704
28	0x3d946295	0.072453655
29	0x3dd5f081	0.10446263
30	0x3e2a3d5b	0.16624968
31	0x3d72c319	0.05926809
32	0xbdb48fd6	-0.08816497
33	0xbd26a32e	-0.040682964
34	0xbda73d01	-0.081659324
35	0xbd5c162d	-0.053732086
36	0x3dd5dfde	0.1044309
37	0xbd9565ba	-0.072947934
38	0x3e191fdb	0.14953558
39	0x3c707289	0.014675745
40	0xbdb0afc4	-0.08627275
41	0x3b8a9b27	0.0042299214
42	0x3de1614f	0.11004888
43	0x3c5e208f	0.013557567
44	0x3def493e	0.11683892
45	0x3d299db4	0.041410163
46	0x3dcf777c	0.10130212
47	0x3de0ea90	0.10982239
48	0x3d85b021	0.065277345
49	0xbe2dd0f6	-0.16974244
50	0xbc7d7ae3	-0.015471193
51	0xbe190a1c	-0.14945263
52	0xbe16a0f9	-0.14709844
53	0xbd815d07	-0.06316572
54	0x3c8d80e2	0.01727337
55	0xbd00090c	-0.031258628
56	0xbd9a797f	-0.07542705
57	0x3d662413	0.056186747
58	0xbd7e67c6	-0.062110685
59	0x3d42d684	0.04756786
60	0x3aadc991	0.0013258924
61	0xbdacdae2	-0.08440186
62	0x3d84bcd6	0.0648133
63	0x3e8f7e71	0.28026155
64	0x3e58a9fe	0.21158597
65	0xbd4a9466	-0.04945793
66	0xbdc33778	-0.09532064
67	0xbdb44969	-0.088030644
68	0xbb874d4e	-0.0041290885
69	0x3e574a19	0.2102436
70	0x3d9e28cc	0.07722625
71	0x3e16041a	0.14650002
72	0x3db7f403	0.089820884
73	0x3bfd8025	0.0077362233
74	0x3e1bfdb3	0.15233497
75	0x3e4a6b15	0.19767411
76	0xbc48d4ff	-0.0122578135
77	0x3e1494c9	0.14509882
78	0x3e1c2baf	0.15251039
79	0x3e8a0190	0.26954317
80	0x3e65cb3b	0.22440808
81	0x3d3669a8	0.044534355
82	0x3bb76094	0.00559623
83	0x3e265634	0.16243821
84	0xbdd69f97	-0.10479658
85	0x3e3d6572	0.1849573
86	0x3d6ee3de	0.05832278
87	0xbd92cbd0	-0.071677804
88	0x3df954e7	0.12174397
89	0x3e14cae7	0.14530526
90	0x3dc3abd1	0.09554256
91	0x3e5bba92	0.2145789
92	0xbd23e8d8	-0.04001698
93	0x3d85c582	0.06531812
94	0x3d0b6eae	0.0340411
95	0x3e7eedc4	0.24895388
96	0xbd148a08	-0.03626445
97	0x3d3277aa	0.04357115
98	0x3e73b62c	0.23799962
99	0x3e2c159d	0.1680512
100	0xbca42030	-0.02003488
101	0x3d3f66e3	0.04672898
102	0x3bd09697	0.006365608
103	0x3db5260f	0.0884515
104	0x3d25bf9f	0.040465947
105	0xbbdbe7b1	-0.0067109694
106	0x3e943e47	0.28953764
107	0x3e27f9ec	0.16403931
108	0x3e03b08a	0.12860313
109	0xbba90283	-0.00515777
110	0x3e6b01fe	0.22949979
111	0x3e2e1c94	0.17003089
112	0x3d8aa6ef	0.06770121
113	0xbd2c43bb	-0.04205678
114	0x3e7bed63	0.24602275
115	0x3e7307e0	0.23733473
116	0x3df16a64	0.117878705
117	0x3e3ffe26	0.18749294
118	0x3deb2380	0.114813805
119	0x3e19be4d	0.15014
120	0x3a8c74b0	0.0010715928
121	0x3dba4993	0.090960644
122	0xbcd6b469	-0.026209073
123	0x3d18c781	0.037299637
124	0x3b4b2706	0.0030998602
125	0x3e662005	0.22473152
126	0x3d89a5d8	0.06721085
127	0x3b1cd340	0.0023929626
128	0xbdb8d430	-0.090248466
129	0x3d22ae34	0.039716914
130	0xbdaa367e	-0.08311175
131	0xbe4b35d0	-0.19844747
132	0xbde64353	-0.1124331
133	0x3dd277de	0.10276769
134	0xbdb7fd6b	-0.089838825
135	0xbdef0b9a	-0.11672135
136	0xbade17de	-0.0016944369
137	0x3e03f88d	0.12887783
138	0x3d874087	0.066041045
139	0x3e165e28	0.14684355
140	0x3d343092	0.043991633
141	0xbdd01594	-0.10160366
142	0x3d19de32	0.037565418
143	0xbdbdf197	-0.09274595
144	0xbe6130f7	-0.21991335
145	0x3da70d7f	0.08156871
146	0x3e280e89	0.16411795
147	0x3de546e6	0.111951634
148	0xbce400c2	-0.027832393
149	0xbdb17c9c	-0.086663455
150	0x3dd0abbe	0.10189007
151	0xbc3d44fd	-0.011552093
152	0xbd957109	-0.0729695
153	0x3d324a6d	0.04352801
154	0x3d159980	0.036523342
155	0x3db1b8ef	0.086778514
156	0xbe9549e9	-0.2915795
157	0x3ce48849	0.027897017
158	0xbd48a973	-0.048989724
159	0x3e55fdb5	0.20897563
160	0x3deb3fd4	0.114867836
161	0x3db0089c	0.08595392
162	0xbd80a96c	-0.06282315
163	0xbd40dfe8	-0.047088534
164	0x3cb33f30	0.021880716
165	0xbdfcc2dd	-0.12341855
166	0x3e1d54eb	0.15364425
167	0xbd28a211	-0.041170184
168	0x3d9d88fd	0.07692144
169	0x3d5715e6	0.05251112
170	0x3d9dc0b1	0.077027686
171	0xbde36fa1	-0.11105276
172	0xbc897f47	-0.016784323
173	0x3bee3d32	0.0072704786
174	0x3dddc3d5	0.108283676
175	0x3df8f02f	0.121551864
176	0xbd8384bd	-0.06421802
177	0xbbbc613c	-0.005748896
178	0x3d82a12d	0.06378398
179	0xbe158340	-0.14600849
180	0xbe1593db	-0.14607184
181	0xbccda498	-0.025102898
182	0xbcf06a61	-0.0293476
183	0x3c5d0d08	0.013491876
184	0x3d38d701	0.04512692
185	0x3e35b2c9	0.17743982
186	0xbdfd1d39	-0.123590894
187	0xbd2723aa	-0.040805496
188	0x3df11bf5	0.117729105
189	0xbdb365f6	-0.08759682
190	0xbdd06846	-0.101761386
191	0xbdcb5527	-0.09928351
192	0xb984ac2e	-0.00025305286
193	0x3dbd04c0	0.092294216
194	0x3d78d71b	0.060752016
195	0x3d0b3ee9	0.033995543
196	0x3d5aa4f1	0.053379957
197	0x3c97f52f	0.01854953
198	0x3dcbdcf0	0.0995425
199	0xbcace24f	-0.021104006
200	0xbd07796e	-0.03307479
201	0x3df1b4bb	0.1180205
202	0x3ba935e3	0.0051638945
203	0xbd128b15	-0.03577717
204	0xbd774553	-0.060368847
205	0x3e518914	0.20462447
206	0x3de67582	0.112528816
207	0xbc182d02	-0.009288074
208	0xbd61d967	-0.05513897
209	0x3d0e6a63	0.034769427
210	0xbdb44358	-0.08801907
211	0x3d268c2f	0.040661033
212	0xbd61f16b	-0.055161875
213	0xbdd030a1	-0.10165525
214	0xbd2ad471	-0.041706506
215	0x3d33716f	0.04380935
216	0x3e00284d	0.12515374
217	0x3d196cb0	0.037457168
218	0xbc06681a	-0.008203531
219	0x3b482f83	0.0030545897
220	0x3dfb9e48	0.12286049
221	0xbd94527e	-0.07242297
222	0x3d8a58ab	0.06755193
223	0xbde29522	-0.11063601
224	0xbcca124d	-0.02466693
225	0x3d966f7a	0.07345481
226	0x3db77015	0.08956925
227	0x3e0e76c1	0.13912489
228	0xbe044921	-0.12918521
229	0xbe3ac310	-0.18238473
230	0xbd26a989	-0.040689025
231	0xbde3e944	-0.11128476
232	0x3e603790	0.21896195
233	0xbe0cc9ac	-0.13748807
234	0x3e678927	0.22610913
235	0x3e27d440	0.1638956
236	0x3d33a80f	0.043861445
237	0xbd496cf2	-0.049176164
238	0x3dc5f866	0.09666519
239	0xbde1420e	-0.10998927
240	0x3dac3bac	0.08409819
241	0xbdaf8338	-0.0856995
242	0x3e922e93	0.28551158
243	0x3da8f8b5	0.08250562
244	0x3d444bdb	0.047923904
245	0x3c2bc7d2	0.010484653
246	0x3de9c1a4	0.11413887
247	0x3df9570e	0.121748075
248	0x3e22a0f1	0.15881707
249	0xbdd6effb	-0.104949914
250	0xbb38c07a	-0.0028190897
251	0xbde4b56c	-0.11167416
252	0x3d188736	0.037238322
253	0xbdbb4974	-0.091448694
254	0xbd65d79a	-0.056113817
255	0xbc82ca2c	-0.015965544

end_layer.0.weight f4 [1, 32]
0	0xbe432afb	-0.19059364
1	0x3e3ad031	0.18243481
2	0xbe1bc9fe	-0.15213773
3	0x3deb6788	0.114943564
4	0xbe718841	-0.23587133
5	0xbe70280c	-0.23452777
6	0x3e075147	0.13214599
7	0x3eb27394	0.34853804
8	0xbe5d34f9	-0.21602239
9	0x3e2d7179	0.16937818
10	0x3ea6a45e	0.32547277
11	0xbeb1286e	-0.34601158
12	0xbed272af	-0.41103122
13	0x3dda4244	0.106571704
14	0xbe9b2da1	-0.3030825
15	0xbe27d3e2	-0.1638942
16	0x3dae060c	0.08497247
17	0xbedb594b	-0.42841563
18	0xbe8a5afe	-0.27022547
19	0x3e3a6128	0.18201125
20	0x3ee44787	0.4458582
21	0xbe60bb8c	-0.21946543
22	0xbe802159	-0.25025442
23	0xbe633549	-0.22188295
24	0x3e0af0c8	0.13568413
25	0xbea7a4bc	-0.3274287
26	0x3e7a652a	0.24452654
27	0xbece8aa8	-0.4034016
28	0x3e444407	0.19166575
29	0xbe415ac2	-0.18882278
30	0x3e72bad4	0.23704082
31	0x3e172a39	0.147622
